serving/airflow/serving/models/lstm_PM.pth (torch, 73364 bytes, 6 tensors)

lstm.weight_ih_l0 f4 [256, 3]
000000 52 cf 54 bd 4c b7 5c 3d 42 f6 e2 3d 59 a3 c4 bc
       -0.05195553 0.053885743 0.11082126 -0.024003671
000010 73 c0 e9 3d c3 35 f9 3d 2b 16 27 bb b5 37 e4 bd
       0.1141366 0.12168457 -0.002549539 -0.11143438
000020 88 09 a8 bd 62 39 48 3d d2 aa 98 bd 8a 22 bb bc
       -0.08204943 0.04888285 -0.074544564 -0.022843618
000030 9d 88 1a bd 09 59 09 be 98 f7 86 bd 6c af a7 bd
       -0.03772794 -0.1341287 -0.065901935 -0.08187756
000040 2e d9 05 be d6 a5 c6 bd f9 9e 9d bd 73 46 1c bc
       -0.13071129 -0.096995994 -0.07696337 -0.009538281
000050 8a 18 c5 bd 65 4e 05 3e f0 e6 a8 3d 22 8d 20 3d
       -0.09623821 0.13018186 0.08247173 0.039197095
000060 96 7c 3d 3d 99 6c 1b bc c1 c7 a0 3c 37 14 a0 3d
       0.046261393 -0.009486341 0.0196265 0.07816356
000070 b6 20 6b bd b0 ed 07 bd 06 a2 16 3d de 11 11 ba
       -0.057404242 -0.03318566 0.03677561 -0.00055339735
000080 69 0b 65 bd cf ef cf bd ce 38 88 bb 1c dd 12 be
       -0.055919085 -0.10153162 -0.0041571623 -0.14342159
000090 81 ff e7 3d fd 86 cf bc eb 1a 8d bd f8 01 8d bc
       0.113280304 -0.025332922 -0.068899 -0.017212853
0000a0 86 f2 89 3c 2c 1c 5f 3d bf b7 c2 3d 22 84 0e 3d
       0.016839277 0.054470226 0.09507703 0.03479398
0000b0 cb 20 56 3d 5b 75 79 bd ef d3 e9 3d 6e ff ff 3c
       0.052277368 -0.060902935 0.11417376 0.031249728
0000c0 0b f8 80 bd 12 ee 7c bd d5 a7 e2 bc a5 b3 d4 3d
       -0.062973104 -0.06175048 -0.02766792 0.10385827
0000d0 5e aa 9e bd 1b 3b 46 bd 87 9a 95 bd 4e 8c 18 bd
       -0.07747339 -0.04839621 -0.073048644 -0.03724318
0000e0 38 70 df 3c d0 0a 30 3d e3 d8 87 3d 99 e8 e8 3d
       0.02727519 0.04297906 0.06633165 0.113724895
0000f0 17 55 9d bd 78 c3 b4 bd c0 a2 b5 bc f5 2f 17 3e
       -0.07682245 -0.08826345 -0.022172332 0.14764388
000100 6a 32 00 3e 98 99 ca 3d a0 5b 4f bd 78 ec 3a bd
       0.12519231 0.09892577 -0.05062449 -0.04563567
000110 cd 69 a7 3d c1 68 30 3d fb 66 07 3e 9f 78 13 bd
       0.08174477 0.04306865 0.13222878 -0.036003705
000120 ec da 0e 3e 81 ee d3 3d 25 ad 5b bd e2 18 3e 3c
       0.139507 0.103482254 -0.05363192 0.011602612
000130 0a 07 b4 3d 47 49 d3 3d 54 96 b6 ba 98 dd b8 3d
       0.08790405 0.10316711 -0.0013930299 0.09026641
000140 63 b7 0d 3e b3 0f de 3d c6 b9 32 3c f9 91 f8 3c
       0.13839488 0.10842838 0.01090855 0.030343043
000150 15 47 1d 3d 89 2b 22 3d 99 66 09 bd c1 ac 75 bd
       0.038397867 0.0395923 -0.03354511 -0.059979204
000160 5f 16 05 be 80 af be 3d 7d 7b 96 3d 1e a1 c7 3b
       -0.12996815 0.09310818 0.07347772 0.0060922047
000170 35 21 9a 3a df 9e a9 bd dc 75 ec bd a3 d9 c4 3d
       0.0011759164 -0.082822554 -0.115459174 0.096118234
000180 9c 3c 2c 3d 1b b1 b4 bc 06 34 f7 3c 4b 89 27 3e
       0.04204999 -0.022057107 0.030176174 0.16360967
000190 fd 5d e1 3d 4e db fb 3d 6b 74 b1 3b 69 b2 42 3c
       0.11004255 0.122976884 0.0054154894 0.011883357
0001a0 c0 ba d7 bd c5 de 01 3e 16 e1 10 3e c0 1c 07 3e
       -0.105336666 0.12682636 0.14148363 0.13194561
0001b0 e6 61 6f bd 6c 0b 89 3d d6 e8 81 bd c6 6b fb bd
       -0.058442973 0.06691632 -0.06343238 -0.122764155
0001c0 a7 f4 30 bd 29 f5 0f bd d4 cd dc 3d 11 13 19 bd
       -0.04320207 -0.035145912 0.10781446 -0.0373717
0001d0 40 c8 b3 bd fc ea ac 3a 41 eb 1e 3e 11 66 1a 3e
       -0.08778429 0.0013192589 0.1551943 0.15077998
0001e0 11 67 9c 3d 23 aa f4 bc 28 cb e5 3d f2 ea d9 3c
       0.07636846 -0.029866284 0.112203896 0.026601288
0001f0 3f 99 19 3d bc c2 19 3e a3 43 35 3e 99 75 30 3c
       0.037499662 0.15015692 0.17701583 0.010770225
000200 fe b9 df 3d 9a 1a da 3d 4f 3d 1a bc 39 49 f4 bc
       0.10924147 0.10649605 -0.009414031 -0.029820072
000210 37 d4 18 3c e8 ff cd 3d df a5 d4 bd 44 56 5c bc
       0.00932794 0.10058576 -0.103832 -0.013448302
000220 58 e7 4f bd 0b 0c ed 3d c9 46 81 3d d0 a2 45 3d
       -0.050757736 0.11574563 0.06312329 0.048250973
000230 3b d6 83 bd de f5 2b bd fc 23 8c bd 71 52 a4 bd
       -0.064373456 -0.041982524 -0.06842801 -0.08023537
000240 f8 75 a9 bd 9f e8 37 3d 6d 27 d9 3d 64 66 f6 bc
       -0.08274454 0.04489958 0.10603223 -0.03007812
000250 d3 a0 89 3c a1 e5 02 bb 26 f1 8b bd 05 99 1a bd
       0.01680032 -0.0019973295 -0.06833105 -0.037743587
000260 a3 48 7b 3d 37 47 8b bd ef ea 2e 3d 64 84 7e 3b
       0.06134857 -0.068006925 0.04270452 0.0038836235
000270 d1 9a b3 3d 71 53 fe bd a3 1d 8e 3c 55 05 26 bd
       0.08769763 -0.12418259 0.017348116 -0.04053243
000280 ad d0 c1 3d 4f 1a 6c bd 2f 27 b8 3d 2d 0c 02 bd
       0.0946363 -0.057642277 0.08991849 -0.031749893
000290 e9 3a f1 bb 65 a2 8a bd b0 17 73 bd 12 55 c8 3c
       -0.007361759 -0.067692555 -0.059348762 0.024454627
0002a0 f7 83 5d bd de 29 b8 ba e3 fd 0e 3e bc 93 04 3e
       -0.05408093 -0.0014050563 0.13964038 0.12946981
0002b0 89 18 46 bd 12 fa 24 bd 87 1e 5c 3d 08 e0 b5 bc
       -0.048363242 -0.040277548 0.05374005 -0.022201553
0002c0 bb f2 55 bd 50 4d fc 3c 6f e7 a5 3d 6c e9 40 bd
       -0.05223344 0.030798584 0.08100783 -0.04709761
0002d0 06 0a 90 bd b2 cd 77 bd 33 e5 ef bd 3a 46 4e bd
       -0.07033162 -0.0604989 -0.11713638 -0.050359942
0002e0 c5 e0 a7 3d 2d f4 01 3e 91 94 22 3e 60 9e 85 3d
       0.08197168 0.12690802 0.15876986 0.06524348
0002f0 c9 d3 74 bd d9 4a d8 3d 77 7a 9c bc 18 e0 6d bd
       -0.059772287 0.10561151 -0.019101365 -0.05807504
000300 a3 6e 93 3d aa 2d 2d bd 87 ff 8d 3d 54 31 08 3e
       0.07198837 -0.042279877 0.069335036 0.13300067
000310 cf ce 93 3c 69 d5 c8 3b a3 79 b9 bc ba 0f a7 bc
       0.01804295 0.006128956 -0.022641009 -0.020393241
000320 62 98 55 bd 89 6c 27 3d 73 27 9d 3c 35 3d 4d bc
       -0.052147277 0.04087499 0.01918385 -0.0125268
000330 a9 6d aa bb 38 ad 0a bd 7f 91 ba bd 1f 50 25 bc
       -0.005201061 -0.0338566 -0.091097824 -0.010089903
000340 c1 f4 9b bc 04 bc 99 bc 17 97 01 be 75 1a 17 bb
       -0.019037606 -0.01876641 -0.12655292 -0.002305654
000350 21 f6 c4 3d 15 01 2b 3d 8a 2d 11 3e e4 61 c5 3d
       0.09617258 0.04174908 0.14177528 0.09637812
000360 8b 59 58 bd 7d 99 e7 bd f0 92 aa bd e4 dc cb bc
       -0.05281977 -0.113085724 -0.08328807 -0.024885602
000370 1c 5e 27 3d 46 5a cd bd ab a4 48 bd 59 37 00 b9
       0.040861234 -0.10026984 -0.048985165 -0.0001222765
000380 d2 28 b4 bd b4 f7 10 be 79 e7 a4 bd 52 db 33 bc
       -0.08796848 -0.14156991 -0.080519624 -0.010977583
000390 9d 92 e1 bd 5e fa 17 bc 60 4f fc 3b fe fb 84 bd
       -0.110142924 -0.009276001 0.007699892 -0.06493376
0003a0 0f f7 db bd ab bb 10 3d bb 90 c4 bd 3e 2b 8f 3d
       -0.10740482 0.035335224 -0.09597918 0.0699067
0003b0 6d 11 85 bc cd 11 16 3e e4 c6 7d bd aa 43 45 3d
       -0.01624366 0.14655228 -0.061957255 0.048160233
0003c0 cf d3 f0 3c ec 91 1c bd 45 2d 0d 3e 4f b3 e0 bc
       0.029397873 -0.0382251 0.137868 -0.027429251
0003d0 1e c6 db bd 6c f3 0e be c6 bd 75 3c 8c d3 93 3d
       -0.10731147 -0.13960046 0.014998859 0.07218084
0003e0 c7 f7 be 3d bf f3 d8 3d e3 ee 58 3d f3 ec 3a bd
       0.093246035 0.10593366 0.052962195 -0.04563613
0003f0 20 3c 13 3d f3 19 10 3c f5 f1 73 3d 02 df 12 3e
       0.03594601 0.008795249 0.05955692 0.14342883

lstm.weight_hh_l0 f4 [256, 64]
000000 40 91 cd bc c4 f2 af bc 16 31 09 bd ef 6f 0e bb
       -0.025093675 -0.021478064 -0.033494078 -0.0021734198
000010 7c fb ad bc f5 b8 0f bc 99 cf 76 bd 92 9d 30 3c
       -0.021238081 -0.008772125 -0.060256574 0.010779755
000020 a3 76 5d 3c 18 81 4c 3b 1c 67 d9 bd d9 e2 5b bd
       0.013517055 0.0031204876 -0.1061537 -0.053683136
000030 83 eb d0 bd d0 1e 80 bd 6c b3 60 3c 33 c5 0b 3d
       -0.1020117 -0.06255877 0.0137146525 0.03412361
000040 a3 43 04 be de 28 81 3c c2 9f 6f bd ed 9b 77 3c
       -0.12916426 0.015766557 -0.058501966 0.015112859
000050 bb e7 fa 3d 05 22 4f bc 45 07 e9 bd cd 60 5e bd
       0.1225123 -0.012642388 -0.1137834 -0.054291535
000060 42 6c d9 bd 11 e7 1c bd e4 2e 82 bd a3 0a d9 bd
       -0.10616352 -0.0383063 -0.063566 -0.10597732
000070 be b2 9e bc d9 ac 78 bc 40 92 91 3d c7 b4 ad bc
       -0.01937234 -0.015177929 0.07107973 -0.021204365
000080 bd 56 b1 3c ae f5 9d bd 5f 2c 2b 3c 41 6b e7 bd
       0.021647805 -0.07712875 0.010447591 -0.11299754
000090 28 38 50 bd f8 6f d1 bd c6 76 d6 bc 62 5a 57 3c
       -0.050834805 -0.102264345 -0.026179682 0.013144108
0000a0 50 56 62 bc bd 47 23 3d 79 e0 3e bd 3c a5 84 3d
       -0.013814524 0.039863337 -0.046600793 0.064768285
0000b0 47 b9 66 3d c5 d6 87 bd 3f 8f cc bd 28 f1 34 bd
       0.056329038 -0.06632761 -0.099882595 -0.044175297
0000c0 65 59 9a 3d 68 82 d8 bc d2 40 70 3d 49 ae 57 bd
       0.07536582 -0.02642937 0.058655567 -0.052656446
0000d0 9d 69 d1 bd a9 9d ee 3d ae ae 40 bd 41 a7 84 3d
       -0.10225222 0.11651165 -0.047041588 0.06477214
0000e0 82 d4 c3 bd c5 4b d2 3d d0 d6 66 3d 61 17 03 3e
       -0.09562017 0.10268358 0.056357205 0.12801887
0000f0 58 cf b0 bb 25 e4 07 bd 02 55 33 3d 7d 31 cc bd
       -0.005395811 -0.03317656 0.04378224 -0.09970377
000100 fa dc 59 bc 38 a1 ef bc ec f0 16 3d 89 8a 7f bd
       -0.013297314 -0.02925168 0.036850855 -0.062387977
000110 74 eb 5d bc 26 b2 3a 3d 8f 41 8b bc 49 39 8e bd
       -0.013544906 0.04558005 -0.016999034 -0.0694452
000120 05 20 86 3d 01 b9 d1 bd 34 dd eb bc 6a 25 b6 bd
       0.06549076 -0.10240365 -0.028792001 -0.08893855
000130 a6 69 9a 3c 4b 15 c2 3d af 11 d6 3c b9 b7 6e 3d
       0.018849205 0.094767176 0.02613148 0.05828068
000140 24 9c 8d 3d 36 c7 f2 3d a9 a6 8d 3c ba 4b 0d bd
       0.06914547 0.11854403 0.017291384 -0.034496047
000150 62 b0 99 bd 27 7a 8e 3d c5 33 8b 3d 7a 4c f2 bc
       -0.075043455 0.069568925 0.06796984 -0.029577482
000160 cd de d4 bd 49 8c d8 3c d1 0d 56 3b 73 ab 3f bd
       -0.103940584 0.02643408 0.0032662044 -0.046794366
000170 5d 7b 15 bd 33 72 7b bd 75 54 9d bc fc c3 9c 3d
       -0.0364946 -0.061388206 -0.019205311 0.076545686
000180 0f a1 be 3c c5 2d 94 bd 3b dc a1 bc e2 4f be 3d
       0.023270158 -0.07235292 -0.019758334 0.0929258
000190 03 f5 53 bd d5 bd 7d 3d f3 52 ba bd 18 e5 af 3d
       -0.051747333 0.061948616 -0.090978526 0.08588618
0001a0 cd cb 85 bd 72 d8 73 3d 82 cf 72 3c a1 51 b9 bd
       -0.065330125 0.05953259 0.0148199815 -0.090487726
0001b0 d1 9e aa bd 8c 09 0a bd 89 10 f5 bd 13 02 ed 3d
       -0.08331073 -0.03370051 -0.119660445 0.11572661
0001c0 6a f6 eb 3c 8a c4 c2 3d 79 dd 41 3c ba 79 0f bd
       0.028804023 0.09510143 0.011832588 -0.035028197
0001d0 0d 26 5c 3c 6c a9 d9 bd 76 e6 79 bc ca 9b e6 bc
       0.013436806 -0.10628018 -0.0152527 -0.028150458
0001e0 10 64 b5 3d e1 02 49 bb 7e 4a ae bd 75 46 e8 3d
       0.08856976 -0.0030671882 -0.08510302 0.113415636
0001f0 35 37 4d 3d 43 7d 4c 3d e7 7f 82 3b 0f 52 a0 3b
       0.050101478 0.049924146 0.0039825323 0.0048925946
000200 82 70 d6 3d aa 70 12 3b 72 95 05 3c 97 86 e8 bd
       0.10470678 0.0022344985 0.008153306 -0.11353796
000210 d2 e1 df 3c 9b 4f 02 be b2 01 a1 3d 28 85 df bb
       0.02732936 -0.1272568 0.078616515 -0.0068212934
000220 a8 a4 23 3d 31 6a d5 bc 9c 4c c4 3d 89 38 ba 3d
       0.03995195 -0.026051613 0.095849246 0.090928145
000230 97 55 ea 3d 99 03 b6 3c 52 ac c5 3b ee 34 1d 3b
       0.11442106 0.022218512 0.006032505 0.0023987847
000240 6c 05 5f 3d 91 4d b6 3d 7e 7a b3 3b b9 19 6d bd
       0.05444853 0.08901513 0.0054772487 -0.05788586
000250 de 50 aa 3d be 50 9f bc 31 03 09 3e af ea d8 3d
       0.083162054 -0.01944768 0.13380124 0.10591637
000260 69 a4 ac bd 8a 25 24 bd 22 03 b0 3d f4 cc e5 bd
       -0.08429796 -0.040074863 0.085943475 -0.11220732
000270 28 15 e8 3d 28 76 a2 b9 04 39 0a 3c 46 30 40 3d
       0.1133216 -0.0003098708 0.008436445 0.046921037
000280 d2 f2 d6 3c 4b 51 ae bd 84 6d 44 bd 8f 2a b9 bd
       0.026238833 -0.08511599 -0.047956005 -0.090413205
000290 75 18 b6 bd e9 5e dc bd 0f d9 a8 bc 3b 5a bf bd
       -0.088913836 -0.1076029 -0.020611314 -0.09343382
0002a0 81 8d 04 3e c7 7c 90 bd c5 79 8e 3d a8 ef 03 3d
       0.12944604 -0.070550494 0.069568194 0.032210976
0002b0 dc 8c a6 bd d2 8e 87 3d a7 70 81 3d 07 9e fd 3c
       -0.081323355 0.06619038 0.06320315 0.030959142
0002c0 44 1c 49 bd 44 f9 4f bd 9f be 96 bc 4b 86 95 3d
       -0.04909922 -0.050774828 -0.018401442 0.07301005
0002d0 bb 59 a9 bd f1 c2 30 3c b4 3f 1a bd 94 72 02 be
       -0.08269068 0.010788665 -0.03765841 -0.1273902
0002e0 1c 8e 36 3d 09 4e e4 bd 91 45 a3 3d bf 0c bc 3d
       0.04456912 -0.111476965 0.07972253 0.091821186
0002f0 44 72 c7 3d 5c 53 e6 bd 4f b0 62 bd 86 78 10 3c
       0.09738591 -0.11246368 -0.055343922 0.0088177975
000300 ee 80 c6 3d 52 9a 69 3d 9d fe 0b 3e d1 5f c3 bc
       0.0969256 0.057031937 0.13671346 -0.0238494
000310 99 24 4f 3d af 75 7c 3d 52 f8 ad bd 3e 8e a6 bd
       0.05057201 0.06163567 -0.08494629 -0.08132599
000320 f2 fd 21 3d 1a 96 b5 bd cb 99 d0 bd 03 f3 1e 3d
       0.03954882 -0.0886652 -0.10185584 0.038805973
000330 51 2b eb 3d 8a ca a4 3c 25 da 9e 3d 0f f6 e9 3c
       0.11482871 0.02011611 0.077564515 0.028559713
000340 a1 b8 ac bc 1e d6 d7 bd 5e bc ac bd 87 ea db 3d
       -0.021084132 -0.105388865 -0.08434366 0.10738092
000350 f2 f4 84 3d 56 19 86 bc 65 92 99 3d e8 f6 95 bd
       0.06492032 -0.016369503 0.07498626 -0.07322484
000360 85 3f b1 bd c8 79 53 3d d6 8f a5 bd c3 1c 40 bd
       -0.086546935 0.05162981 -0.08084075 -0.04690243
000370 97 89 0c be be 37 02 be cd d0 f5 3c ba fd a4 3d
       -0.13724361 -0.12716576 0.03000679 0.08056207
000380 2d 8c 82 bd a9 fd 18 3d 2c c0 0c be 15 09 e6 bc
       -0.06374393 0.037351284 -0.13745183 -0.028080503
000390 59 1e 1e be a9 4a 35 3d 06 7e d9 3d 4b d1 b3 bc
       -0.15441264 0.044260655 0.1061974 -0.021950385
0003a0 b8 f8 43 bd c6 e9 2f bd 4a 53 54 bd 57 e9 8a bd
       -0.04784462 -0.042947553 -0.051837243 -0.06782787
0003b0 62 f0 fc bc 20 e9 a2 bd de d7 bc 3b bc 54 99 3d
       -0.030876342 -0.07954621 0.005763038 0.07486865
0003c0 78 37 f2 3d f3 c1 ad 3d ae b1 8f 3c da cf 05 3d
       0.11826986 0.084842585 0.017540779 0.032668926
0003d0 5e 64 c9 3d 37 01 8e 3d 48 89 4a 3d 23 32 a9 3c
       0.09833597 0.069338255 0.049447328 0.02065379
0003e0 ce 28 e4 3c ab df b8 3d 76 1d c6 3d 44 e5 f0 3c
       0.027851488 0.09027036 0.09673588 0.029406197
0003f0 2c ff 27 bd d1 90 dc bc 79 5e b0 3d 97 30 c9 bc
       -0.041014835 -0.026924523 0.08611769 -0.024559302

lstm.bias_ih_l0 f4 [256]
000000 45 5a 93 bc 04 0b ff 3c 9d 34 60 bd 9a 04 b2 3d
       -0.01798738 0.031133182 -0.054737676 0.08692284
000010 bb 0c e9 bc 8f d3 66 3d 52 5e ae bd 3a b1 92 3b
       -0.028448453 0.0563541 -0.08514084 0.0044766935
000020 2e 89 9e bd a8 ec d4 bc 4c 2b 95 bd 12 f7 ca 3c
       -0.07741009 -0.025991753 -0.07283649 0.024776015
000030 a2 3c ae bd 03 d9 63 3d 91 81 e8 bc 04 5a 83 3d
       -0.085076585 0.05562688 -0.028382095 0.064136535
000040 fb 8b a6 3d 46 d1 9e 3d f9 00 f9 bd 28 66 04 3d
       0.08132168 0.077547595 -0.12158389 0.032323986
000050 00 ba c0 bd 0e 85 82 3c 1d de 30 bc 8a ce f1 bb
       -0.09410477 0.015932586 -0.010795143 -0.0073793577
000060 a2 0c f3 3d ef 94 ef bc e1 87 8e 3d 6c 12 81 3d
       0.11867644 -0.029245822 0.069595106 0.06302342
000070 30 95 72 bd 5f 2f 99 bb a6 fc 05 bd 6c 3f 36 3d
       -0.059224308 -0.0046748365 -0.032711647 0.044494078
000080 7a 68 2d bd fe 91 36 bd db 44 c8 3d 78 fa 74 3d
       -0.042335965 -0.044572823 0.09778758 0.059809178
000090 8a 76 40 3d cd d8 aa bd ed 93 c3 3c 93 22 2b 3d
       0.046988048 -0.08342133 0.023874247 0.04178102
0000a0 10 6e 85 bc ef 89 01 bd 4c 9d c9 bd 70 99 c4 3d
       -0.016287833 -0.031625684 -0.09844455 0.095995784
0000b0 c5 45 37 3d 36 c9 a7 3c ba 27 21 bd 4b 0d a5 bd
       0.04474427 0.020481687 -0.039344527 -0.08059176
0000c0 d0 01 a8 3d 26 a7 58 bc ef ab 04 3e eb c2 c1 3d
       0.08203471 -0.013223445 0.12956212 0.09461006
0000d0 5d 5c 69 3d 02 90 5e bd d4 bb b5 3d a0 8b ba bd
       0.05697285 -0.054336555 0.08873716 -0.091086626
0000e0 22 70 59 bc 24 70 01 bd e9 8c 1f 3b fa a2 4e bd
       -0.013271363 -0.031601086 0.0024345464 -0.050448395
0000f0 83 eb e9 3c 11 d2 42 3d 1f 14 f8 bd f3 de 0b 3d
       0.028554684 0.047563616 -0.12113213 0.034148168
000100 d7 a6 42 3d 76 90 a3 3d 9f e2 1e 3d b1 35 00 bc
       0.047522392 0.07986538 0.03879034 -0.007825301
000110 8e b7 4f bd 79 4e ec 3c 2b 78 9a 3d ae cd dc bd
       -0.05071216 0.028846012 0.075424515 -0.10781418
000120 9d 7f 3a 3d 4d 15 d6 bc dc 3f e6 3d c7 77 49 3b
       0.045531858 -0.026133204 0.11242649 0.003074156
000130 ad 64 41 3d 01 ae e4 3c 16 7f c5 bd e4 54 35 3c
       0.047215153 0.027915003 -0.0964338 0.011067603
000140 a4 40 b9 bc e5 4f 1a 3d 9e cf 92 3d 77 fd fb 3d
       -0.02261383 0.03767385 0.07168506 0.12304204
000150 3b 28 dc bd 01 96 d9 3d 33 b2 da 3d 0a d1 ab bc
       -0.10749861 0.10624314 0.1067852 -0.020973701
000160 31 1a 7e 3b 8d 99 8e bd 6d ec b5 3d e9 a7 0d 3d
       0.0038772936 -0.06962881 0.08882985 0.03458396
000170 f5 8a bb bd d7 4c e4 bb 47 e1 12 bd bc 72 cb 3d
       -0.09157363 -0.006967168 -0.035859372 0.09933993
000180 f2 53 ac 3d b1 81 c2 3b 47 a7 f7 bd a5 68 91 3d
       0.08414449 0.0059358706 -0.120924525 0.071000375
000190 34 dd 5f 3b fa 07 85 bc 8c ac 7a 3d f7 ef 90 bd
       0.0034158947 -0.016239155 0.06119971 -0.0707702
0001a0 a6 4b f0 bb 5f 62 c6 bd ec 22 05 3e 31 48 44 3d
       -0.0073332367 -0.096867315 0.13001603 0.04792041
0001b0 55 a7 b9 bd c6 76 40 3d 0b c0 87 bc 8d cb e2 3c
       -0.09065119 0.04698827 -0.016571065 0.027684951
0001c0 35 8b 8b 3d de cf 8e 3d 03 63 9f bd e5 40 17 3c
       0.06813661 0.06973241 -0.07782557 0.009231781
0001d0 86 6b cf bb e3 c7 26 3d db 6e c3 bd e3 d6 74 bd
       -0.0063299565 0.04071797 -0.095426284 -0.059775244
0001e0 32 68 b0 bd bd 22 c2 3c 47 17 af 3d 82 d4 91 3c
       -0.08613624 0.023698205 0.08549362 0.017801527
0001f0 38 8b bd bd 50 50 ff 3d c7 c4 14 bd af b8 35 bd
       -0.092550695 0.1246649 -0.036320474 -0.04436558
000200 f9 d3 73 bc 0e bb 6a 3d 7e e0 95 3d ea af 51 3d
       -0.014882081 0.057307296 0.07318209 0.051193155
000210 e4 3f 2a 3d 4b 5a 7a 3d 34 54 02 3d 88 97 00 be
       0.041564837 0.061121266 0.031818584 -0.12557805
000220 3a 6f 97 3c ff 0b d1 bd 02 48 15 bd 04 61 94 bd
       0.018485654 -0.10207366 -0.036445625 -0.07245067
000230 da 33 14 bd 6e 99 90 3d a1 0b a2 3b fe 8f b7 bd
       -0.036182262 0.070605144 0.004945234 -0.08963011
000240 7c 43 fa bd e7 ee f2 bc ea 6a 2b bd b4 70 f9 bc
       -0.12219903 -0.029654933 -0.041850008 -0.030449249
000250 ad 25 de 3b 88 f6 35 3d 08 c2 b6 bc 27 68 89 bd
       0.0067793936 0.044424564 -0.022309318 -0.067093186
000260 50 4e 13 bd 5f f5 72 bd fe cf 04 be fe 53 c7 3d
       -0.035963356 -0.059316035 -0.12969968 0.09732817
000270 4e ce 7f 3d 87 71 a8 3d 36 b6 d9 3d 8a c6 4a bd
       0.062452607 0.082247786 0.10630457 -0.049505748
000280 7a f3 bd 3d 87 3d 8a 3a e0 5d c9 3d 0d 10 a0 bd
       0.09274955 0.0010546901 0.09832358 -0.078155614
000290 fd 5b d0 3c 1a af c3 bc 84 af 7a 3c 9c 56 73 bd
       0.025434488 -0.023887206 0.015300635 -0.05940877
0002a0 02 ab 01 3d 0a 3f b3 3c b0 24 49 bd dd 68 b3 3c
       0.031657226 0.021880645 -0.049107254 0.021900589
0002b0 aa b6 de bc 74 b1 1c bd cb 3b cd 3c 5a 3f ab 3c
       -0.02718671 -0.03825517 0.025052926 0.020904232
0002c0 8a e2 5e bd 11 fb dc bc 06 28 cc bc 9d 1a 0a bd
       -0.054415263 -0.026975187 -0.024921428 -0.033716787
0002d0 1e b4 66 bd 3b 1f 46 bd ae ac c6 bc fe 2a 08 3e
       -0.056324117 -0.048369627 -0.024252262 0.1329765
0002e0 17 91 e0 3d 8f 46 d1 3b e1 13 d8 bc 5b 33 17 3d
       0.10965174 0.006386585 -0.026376667 0.03691421
0002f0 ee 34 d1 bd 62 dd e4 bc 4c 69 06 be 49 a3 08 3d
       -0.10215174 -0.027937595 -0.13126105 0.033358846
000300 a6 26 d4 bd 84 aa 08 3c 28 01 81 3d 90 1a 0d bd
       -0.10358934 0.008341435 0.06299049 -0.03444916
000310 57 49 ba bd 62 3d 83 3c f8 7e 34 bd 4c 8f c8 bc
       -0.0909602 0.01602048 -0.0440664 -0.024482392
000320 5d 00 6c 3d ea 2d 9b bd e8 b4 c1 bd f1 89 35 bc
       0.057617534 -0.07577117 -0.09458333 -0.011080251
000330 9d b1 90 3d 11 55 8b 3c 48 80 62 bb f4 c3 3a 3d
       0.07065127 0.017008336 -0.0034561325 0.04559703
000340 a1 2d d3 bd 01 f0 9a bd 6e 36 68 3d 92 00 ba 3d
       -0.103114374 -0.07565308 0.056692533 0.0908214
000350 53 29 ad 3d 36 ed 0d 3e 12 bd 74 bd e3 93 f7 3d
       0.084551476 0.1386002 -0.059750624 0.12088754
000360 48 8a e4 3d 28 60 cc 3d 39 35 04 3d 3a 63 c4 bd
       0.111591876 0.09979278 0.03227732 -0.095892385
000370 7e a7 d9 3d 95 db 89 bd 5e dc 2b bd fd d9 b8 3d
       0.1062765 -0.06731335 -0.041958205 0.09025953
000380 8e 38 55 b9 5b 7c e9 3d 36 bb 4c bd 50 8c 04 3e
       -0.00020334331 0.11400672 -0.049983226 0.1294415
000390 0b 6c b3 3d 7f c8 e5 bd 5c ea 93 bd dd dc da 3d
       0.08760842 -0.11219882 -0.07222435 0.106866576
0003a0 ea 7c 2e ba 1e e1 e6 3c 7a 46 3e bc be 97 d7 bc
       -0.0006656187 0.028183516 -0.011613483 -0.026317474
0003b0 17 8e e0 3d ee 34 e7 bd 18 7b b4 3d 6c f2 c6 3d
       0.109646015 -0.112893924 0.08812541 0.09714207
0003c0 43 57 cc bc 19 e4 a8 bd 70 7f fd 3d 68 67 08 bc
       -0.024943953 -0.08246631 0.123778224 -0.008325435
0003d0 ad e1 c0 3d 18 54 dc bd 74 c9 d8 bd 7c f4 e3 bc
       0.09418044 -0.10758227 -0.10585299 -0.02782654
0003e0 dd ae 97 bc ec 0f 71 bc ed 5a b7 3d aa f1 ba bd
       -0.018515998 -0.014713269 0.089528896 -0.09128125
0003f0 26 de 06 be 39 83 a7 bd ce c6 66 3c f5 29 92 bc
       -0.1317068 -0.081793256 0.014085485 -0.017842272

lstm.bias_hh_l0 f4 [256]
000000 8b 37 be bc 2d da fa 3d 71 26 08 be 24 5b a1 bd
       -0.023219844 0.12248645 -0.13295914 -0.07878712
000010 8f a3 04 bd 36 28 83 bd d4 40 82 bc 1d d7 0b 3c
       -0.032382544 -0.06404154 -0.015900053 0.008535174
000020 e8 98 c6 bd c2 ed 63 3d 3f 95 b2 bd 3a 6e 9e bd
       -0.09697133 0.055646665 -0.08719873 -0.07735868
000030 08 6a 1d 3d db 43 ba 3d 56 44 e5 3d da ba 01 3e
       0.038431197 0.09094974 0.11194675 0.12668934
000040 46 52 89 3c 36 14 84 3c 10 cc 00 be a2 9d e9 bd
       0.016762864 0.016122919 -0.12577844 -0.11407019
000050 f2 69 a7 bd 59 65 6b 3d f7 92 c5 3c db b6 ce 3c
       -0.08174504 0.0574697 0.02411793 0.025233677
000060 08 a0 b8 3d d4 95 52 bd 40 97 a0 3d df 96 b6 3d
       0.090148985 -0.05141242 0.07841349 0.08915495
000070 cf 59 c5 bd 10 e5 e2 bd 20 8d b9 bd d3 79 b7 3c
       -0.0963627 -0.110788465 -0.090601206 0.022396958
000080 ce 21 c8 3d be e4 3f 3d 8b 18 e0 3c fb a5 f5 3d
       0.09772073 0.046849005 0.027355453 0.11994549
000090 d1 a9 ed bd cb 3b e6 bd 47 52 8a bc b3 09 e3 3d
       -0.116046555 -0.11241873 -0.016884936 0.11085834
0000a0 21 d7 84 3d 28 8b 84 3d 2c 17 da bd 76 84 06 3e
       0.06486345 0.064718544 -0.10648951 0.13136467
0000b0 17 fe 22 3c 74 bc 96 bc d3 3e 78 bd c0 6d 58 bd
       0.009948275 -0.018400408 -0.06060679 -0.05283904
0000c0 60 c3 d9 bd 96 68 ed bd 39 18 22 bd d7 19 b1 3d
       -0.10632968 -0.11592214 -0.03957388 0.08647507
0000d0 c1 88 9e bd 23 e2 54 3d ae 25 c2 bc fb 2f 02 3e
       -0.077409275 0.051973473 -0.023699608 0.12713616
0000e0 fe fd 49 bd b7 8d 60 bd a5 e6 c4 bd c3 b7 9a bb
       -0.04931449 -0.05482265 -0.096143045 -0.004721613
0000f0 8d f4 87 bd bb 13 d2 bd fb 6d a3 3d 9f 93 35 3d
       -0.06638441 -0.102576695 0.079799615 0.044330236
000100 42 97 05 3e 36 e9 f7 3d fb 48 b2 bb 32 9d 88 3c
       0.13045982 0.12105028 -0.005440829 0.016676519
000110 3a 49 ea bd f9 41 4e bd c7 91 dc 3d b6 ea ca bc
       -0.11439748 -0.050355885 0.10769992 -0.024770122
000120 fa 99 62 bc 3c fe 35 3d 80 59 99 3d bc de c8 bd
       -0.013830656 0.04443191 0.07487774 -0.09808108
000130 de 11 5d bc 05 6b 9e bd 94 dc 0d bd d0 76 bd 3d
       -0.013493029 -0.07735256 -0.034634188 0.09251177
000140 8d e5 c6 bc 9f d4 d0 3d ef e7 ed 3c d2 a7 ef 3c
       -0.02427938 0.10196804 0.029041259 0.029254828
000150 1e 8a 32 3d 19 fb 86 3d e8 d0 26 bc 49 38 31 bc
       0.04358875 0.06590862 -0.010181643 -0.010816642
000160 f4 3a 9a bd ea e0 b2 bd 99 1e 16 bd b4 3c cb bd
       -0.07530776 -0.08734305 -0.036650274 -0.099236876
000170 6d 1d aa 3d 1c 72 d2 bc bc f0 84 bd 8c a0 31 bd
       0.08306394 -0.025689177 -0.06491229 -0.043366
000180 5f 88 4d 3d 75 e1 c1 3d d1 c0 cd 3d 51 04 e3 3d
       0.05017888 0.09466831 0.100465424 0.11084808
000190 60 5b f9 3b 4f 6b d9 bd ac 34 fd bc 85 12 c6 bd
       0.0076097697 -0.106161706 -0.030908905 -0.09671501
0001a0 44 8b 7c bd 07 46 be bd 49 65 14 bd 09 f7 97 bd
       -0.06165625 -0.092907004 -0.036229406 -0.07420165
0001b0 f1 ce 28 bd 62 a7 3c bc 09 73 bd bd 10 89 6c bd
       -0.04121298 -0.011514517 -0.09250457 -0.0577479
0001c0 9a 99 69 bd 4f 3a 9f bc b4 54 07 3e f5 11 bc bd
       -0.05703125 -0.019436983 0.13215905 -0.091831125
0001d0 a1 ec ba bd 73 0a 54 3d 23 b4 84 bd 29 c2 e8 bb
       -0.09127165 0.051767778 -0.06479671 -0.007103224
0001e0 a0 01 31 bd d7 c0 df 3b b5 80 67 3c 32 ba 19 3c
       -0.04321444 0.006828408 0.014129807 0.009382771
0001f0 a3 58 00 be b5 9f aa 3d 23 e6 bc bd 65 41 f6 bd
       -0.12533812 0.08331243 -0.092235826 -0.12024192
000200 81 de 5e bd 90 5d 0c be 4e d9 8a bd 23 40 68 bd
       -0.054411415 -0.13707566 -0.06779729 -0.05670179
000210 bb 63 c1 bd 8b 02 de 3c 33 3d 44 ba 40 00 98 3d
       -0.0944285 0.027100822 -0.0007485926 0.07421923
000220 47 8a c5 bd b6 b7 c8 bc 35 d6 ee 3d a0 29 d4 bd
       -0.09645515 -0.024501663 0.116619505 -0.10359502
000230 4a 07 df 3a ae 1f aa bd fb be 44 3d 05 c2 28 bd
       0.0017015722 -0.08306824 0.048033696 -0.041200656
000240 7e 03 13 bd d9 85 bc 3d 71 5a d0 3d 3b 24 3f 3b
       -0.035892002 0.09205217 0.101735 0.0029165882
000250 95 c8 c7 3d 43 57 e6 bc b8 cf dd bd ef ea 1f bd
       0.09755055 -0.028117782 -0.10830635 -0.03904241
000260 f3 30 fc bd 7d d7 96 3d c2 08 93 3d 67 32 27 3d
       -0.12314024 0.0736532 0.07179405 0.04081955
000270 35 d9 f8 bc fb 86 91 3d f6 85 9b bd 36 22 59 3d
       -0.03037701 0.071058236 -0.075939104 0.05301114
000280 50 2a b8 bd 97 fe 97 bd 92 d4 b4 3d f7 74 84 bd
       -0.089924455 -0.07421606 0.08829607 -0.06467622
000290 9c 1a de 3c 90 64 a0 3d d8 31 0f bd 3f 7d cf 3d
       0.027112298 0.07831681 -0.034959644 0.10131311
0002a0 4c c3 91 bd b6 1e 11 3d bf 39 b8 bd 23 f2 91 3c
       -0.07117328 0.03542968 -0.08995389 0.017815655
0002b0 79 f1 20 3b 84 6c 3c 3d 6c 2e ae bc bc 0e d7 3d
       0.0024557991 0.046001926 -0.02126237 0.10500857
0002c0 bc 8f ef 3c 77 8d 82 3d e4 09 db 3d 04 ad a9 3d
       0.029243343 0.063746385 0.10695246 0.08284953
0002d0 b9 54 b0 bd a9 fc c6 3d 37 d4 6d 3d 16 00 36 3d
       -0.086099096 0.0971616 0.058063712 0.044433676
0002e0 c1 f3 0c 3d e5 cc 3b bd 27 0f 7e bd 99 0f c5 3b
       0.03441215 -0.0458497 -0.06202617 0.0060138223
0002f0 66 4a aa 3d 72 31 e6 bc 52 01 36 3d 20 ef d5 bd
       0.083149716 -0.02809975 0.044434853 -0.10446
000300 88 06 57 bd ea 7f e4 3d 17 89 b7 bd 8b c7 6e 3d
       -0.052496463 0.1115721 -0.08961695 0.058295768
000310 17 69 fb bd 0e 86 6f 3d 70 48 36 3c 9c cc 0e 3d
       -0.12275904 0.058477454 0.011125669 0.0348631
000320 06 49 8c bd 96 b7 fd bd 96 da c7 3d 44 05 02 be
       -0.068498656 -0.12388532 0.09758489 -0.12697321
000330 04 d7 80 bd 4c e4 16 bc 66 08 40 bd 2e af 99 3c
       -0.06291011 -0.009209704 -0.04688301 0.01876029
000340 03 a5 e4 bd 38 7c ac bd b5 8e e2 bc 53 a7 02 3e
       -0.11164286 -0.0842213 -0.027655939 0.12759142
000350 81 87 92 3d 7f b5 54 bc 36 61 bf bd a2 65 8e 3d
       0.071547516 -0.012982725 -0.093447134 0.06952979
000360 52 66 bb 3d 45 ef a4 3a 2e fc 35 3d 42 55 b3 bd
       0.091503754 0.0012583515 0.04442995 -0.08756496
000370 20 d1 0b bb 91 c0 de bd 63 d9 f2 3d c5 9e 26 3d
       -0.0021334365 -0.10876573 0.118578695 0.04067876
000380 c6 e0 3b bd 15 50 cc 3d 0c 8e d5 bc 07 4d 6e bb
       -0.045868658 0.09976212 -0.02606871 -0.003636183
000390 9f b2 32 bd 39 f6 08 be 91 6e 97 3d 83 cb 9a bd
       -0.043627378 -0.13375176 0.07394136 -0.07558348
0003a0 51 e9 3d 3c 99 00 9c 3d 12 69 43 3d ae 45 4a bd
       0.0115912715 0.076173015 0.047707625 -0.049382858
0003b0 41 ac 0d 3b 04 67 45 3d ba 9f 0c 3c ca e1 ec bd
       0.0021617564 0.048193946 0.008583004 -0.11566503
0003c0 d9 40 f0 bd 93 33 e5 bd b1 3d ed 3d 1c 7a ae 3d
       -0.11731119 -0.111914776 0.11584032 0.08519384
0003d0 19 99 e7 3d 04 71 de bd 03 71 00 3e 56 7b b8 bd
       0.11308498 -0.108614 0.1254311 -0.090078995
0003e0 0c a2 e1 bd 5c 1a 75 bc 96 c9 76 bd 6a d5 ac bd
       -0.11017236 -0.014959898 -0.06025084 -0.08439143
0003f0 98 b7 91 bd ee 91 e7 3c e8 a8 05 3d 3d de 7d bd
       -0.07115096 0.028267827 0.032631785 -0.06197952

fc.weight f4 [3, 64]
000000 cc c5 94 bc 24 60 b4 bd 59 de 0d bd dc 17 bd 3d
       -0.018160723 -0.088074 -0.034635875 0.092330664
000010 09 c1 b8 3d f2 63 d8 bd 0d de 46 3d c4 a5 93 bd
       0.090211935 -0.10565938 0.048551608 -0.07209352
000020 7c 20 df 3d d7 87 8c 3c 57 8b ac 3c 3b 97 d8 3d
       0.10894868 0.017154617 0.021062536 0.1057572
000030 c4 d7 44 3d eb 4b 82 bc 38 ab 05 bc 47 b5 bd bc
       0.048057333 -0.015905341 -0.0081584975 -0.023157729
000040 bf f8 d6 bd 59 c0 8b bb e2 40 ca bd ae a6 08 be
       -0.10496663 -0.004264873 -0.09875657 -0.13344833
000050 cf 57 df 3b 07 6b 4d 3d 95 b9 ad bc 27 2b cf bd
       0.0068158875 0.050150897 -0.021206656 -0.101156525
000060 9f c6 0b be 67 d8 9d bd ec 87 10 bd 30 3d c6 3d
       -0.13649987 -0.07707291 -0.035285875 0.09679639
000070 de ce 0a 3c c8 88 fb bc e5 5b 12 3b 9b d7 37 bd
       0.008472173 -0.03070487 0.0022332605 -0.04488335
000080 1a 4f 21 bc 67 65 5a bd b8 f5 db bd 7e 75 7c bd
       -0.009845519 -0.05331936 -0.107402265 -0.061635487
000090 a4 a9 f8 3d dd 33 85 3d 41 7c 03 3d 90 a8 e4 3c
       0.121417314 0.06504033 0.03210092 0.027912408
0000a0 87 6e c3 bd 9b 14 09 3e 6f 43 a0 bd 4d 23 c9 3c
       -0.09542566 0.13386767 -0.07825362 0.024552966
0000b0 a5 e9 a9 3b 04 0d 97 bd d3 70 46 bc 6f 8d d2 bc
       0.0051853233 -0.073755294 -0.01211186 -0.025702206
0000c0 af da ac 3c 27 0e d9 bc 2f f5 ad 3d 16 0e 8d bc
       0.02110037 -0.026496006 0.08494031 -0.01721863
0000d0 71 77 e4 bc 29 b9 ee 3d ea 35 8a 3c 89 0c d7 3d
       -0.027888985 0.1165641 0.016871411 0.10500438
0000e0 12 1f 05 3e f2 48 7d bd 63 0c 01 be 5f 9d 3b bd
       0.13000134 -0.061837144 -0.12602381 -0.045804378
0000f0 ca e2 30 3d c7 06 c0 bd a0 44 95 bd d0 2a ae bb
       0.043185033 -0.09376293 -0.0728848 -0.0053151622
000100 c1 ca b2 3d 75 f3 b3 3d e6 32 9d bd c7 99 af 3d
       0.087300785 0.0878667 -0.07675724 0.085742526
000110 5b 83 b8 3d 81 f2 a5 bd 51 4e 47 3c 45 31 bf bc
       0.09009429 -0.081028946 0.012164668 -0.023338923
000120 6e dc d0 3b 7d c2 a4 bd 3f 7c ba bd 0f 9a ff 3c
       0.0063739335 -0.08044908 -0.09105729 0.03120139
000130 5c 63 6e bd f3 c4 e4 3b 08 11 4a 3b 39 0e 1d bb
       -0.058200225 0.006981486 0.0030832905 -0.0023964776
000140 21 79 aa 3d cb f0 a1 bd 11 49 01 be 3f d2 12 3c
       0.08323885 -0.07907256 -0.12625529 0.008961259
000150 66 88 87 3d 7e 43 fc bc ca 34 ea bc 8e 9c d8 bd
       0.06617813 -0.030793902 -0.028589625 -0.105767354
000160 d0 e2 b5 bc b6 37 8b 3d e1 6f b6 bd 68 f0 f1 3c
       -0.02220288 0.067977354 -0.08908058 0.02953358
000170 dc ca e6 bd b5 e1 49 3b f4 2e c3 bd b2 b1 2e 3d
       -0.11269161 0.0030804698 -0.0953044 0.042649932
000180 d7 eb c7 3d 80 2c f0 3c fd b3 bc 3d 14 17 37 3c
       0.0976178 0.029318094 0.092140175 0.011174936
000190 a4 7b a9 bd c1 1b 24 3d e9 85 c3 bb 8f 60 fb 3d
       -0.08275536 0.04006553 -0.005966891 0.122742765
0001a0 9f fa 7c 3d 38 3e 5f 3c 33 8e 6b bd 00 af d0 3c
       0.06176245 0.013625674 -0.05750866 0.025474072
0001b0 87 ec 9f 3d 6d 17 e0 bd bf e9 4a bc ea 57 aa bd
       0.07808786 -0.10941968 -0.012384831 -0.083175495
0001c0 2a f9 90 3d 4d e6 a2 3d e0 2e 6b bb 48 16 ec 3d
       0.07078774 0.07954083 -0.0035886094 0.11527687
0001d0 ba b3 9b bd 8d 63 10 3c a9 d2 9d 3c f6 ec 83 bd
       -0.076026395 0.008812797 0.01926549 -0.06441681
0001e0 9c 9b 04 be 96 96 ea 3d 3c b5 c7 3d af c7 34 3d
       -0.12949985 0.11454503 0.097513646 0.044135746
0001f0 e9 65 d9 bd 03 91 e6 3c 4d ed e0 3c 79 1b 8c bd
       -0.10615141 0.028145319 0.027456904 -0.068411775
000200 4b 59 8f 3d 58 b3 16 bb 36 10 8c 3d c2 bd d7 bd
       0.06999453 -0.002299508 0.068390295 -0.1053424
000210 b9 ac 0d 3d c7 c7 0c 3c b0 6f d0 bd 4c 89 b8 bd
       0.03458855 0.0085925525 -0.10177553 -0.09010562
000220 69 65 95 bc d9 bb 98 bd 86 11 39 3d 20 8f 7c 3d
       -0.018236833 -0.07457704 0.045182727 0.061659932
000230 8a f4 bc 3c 37 35 66 3b b5 fe 14 be 09 ac f2 bd
       0.023065824 0.0035126933 -0.14550288 -0.11849219
000240 f2 86 a5 3d 16 3d c3 bc 7c 8f 87 bd e7 a6 9f bd
       0.080823794 -0.023832839 -0.06619164 -0.07795506
000250 26 ae b3 3d 67 02 65 3d 93 8f bc 3d ee 08 71 3d
       0.087734506 0.055910494 0.09207072 0.058846407
000260 5f e5 91 bc dc 9c c8 3b a0 22 2b bd 02 4d 49 3d
       -0.017809568 0.0061222147 -0.041781068 0.049145706
000270 6e ec 39 3d 9b ce b0 3d d2 d4 af 3d 87 cf ec 3d
       0.045391493 0.08633157 0.08585514 0.1156302
000280 02 61 51 3d 32 06 e8 bd d7 46 57 bc ca d4 e1 bd
       0.051117904 -0.11329307 -0.013139448 -0.110269144
000290 bc 12 b4 bd 2a e4 9c bd 76 df 53 3b ba cd 51 3d
       -0.08792636 -0.07660706 0.0032329238 0.051221587
0002a0 14 76 75 bd c6 32 66 3d d0 af fd bc 75 19 08 3e
       -0.05992706 0.056200765 -0.030967623 0.13290961
0002b0 3c d9 18 3c 5b 8e 52 3b 6d bb c2 bd 3d 67 9d 3d
       0.009329136 0.0032128308 -0.09508405 0.07685707
0002c0 85 2d bf bd c4 fa 07 bd a6 d9 02 bc 92 16 51 3d
       -0.09334854 -0.033198133 -0.007986462 0.051046915
0002d0 cc 7b ce 3d 51 b2 0b 3e 87 56 d6 bd b6 3f 52 bd
       0.10082206 0.13642241 -0.104657225 -0.05133029
0002e0 91 79 63 bd c0 8b 7b bd 38 e1 8c 3c 65 45 83 3c
       -0.055535857 -0.061412573 0.017197236 0.0160243
0002f0 13 fb 0b be 34 5a 9d bc cd e3 aa bd 5e e7 55 3d
       -0.13669996 -0.019208051 -0.08344231 0.052222602

fc.bias f4 [3]
000000 62 f5 9f bd 8c fd 50 3d b9 5b 18 3d
       -0.07810475 0.05102305 0.03719685
