serving/airflow/serving/models/lstm_temperature.pth (torch, 73555 bytes, 6 tensors)

lstm.weight_ih_l0 f4 [256, 3]
0	0xbda082ae	-0.07837425
1	0xbd8045a7	-0.06263285
2	0x3c5035af	0.012708112
3	0xbe0f1a0b	-0.13974778
4	0xbba26c4e	-0.0049567586
5	0xbd0e8b2f	-0.034800705
6	0x3dc3a127	0.09552222
7	0x3d58b96a	0.0529112
8	0xbd4a6884	-0.04941608
9	0x3da87cda	0.082269385
10	0x3ddf43c6	0.10901599
11	0x3dc1ccc3	0.09462883
12	0x3da91843	0.08256581
13	0xbd17548f	-0.036945876
14	0xbd39ef3d	-0.04539417
15	0x3e1530b9	0.14569367
16	0x3c229d79	0.00992524
17	0xbd916862	-0.070999876
18	0x3caef4ca	0.021356959
19	0x3d7f4ccc	0.0623291
20	0x3b45ae61	0.0030163752
21	0x3db7cdb7	0.08974784
22	0x3cc4c955	0.024021784
23	0x3d965f6d	0.0734242
24	0x3e01e346	0.12684354
25	0xbd82c022	-0.06384303
26	0x3cbb8df2	0.022894833
27	0x3d796a27	0.06089225
28	0x3d180491	0.03711373
29	0xbde19425	-0.110145845
30	0x3d7c4ab7	0.06159469
31	0x3e20d804	0.15707403
32	0xbcf8645f	-0.030321298
33	0x3bc35446	0.005960974
34	0x3d8a8af5	0.06764785
35	0x3d7192b3	0.058977794
36	0xbd3554fa	-0.044270493
37	0xbdcd7ff7	-0.10034173
38	0xbda0980f	-0.07841503
39	0x3bb43b08	0.005500201
40	0xbdff1c15	-0.12456528
41	0xbe04a427	-0.12953244
42	0x3da4e003	0.08050539
43	0xbc348f11	-0.011020438
44	0xbdbd6e96	-0.09249608
45	0x3dfc6e33	0.12325706
46	0x3d9a0c41	0.075218685
47	0x3d7ef761	0.062247638
48	0xbd443f8e	-0.047912173
49	0x3da56deb	0.08077606
50	0x3d7fa8a4	0.062416688
51	0x3d7a9284	0.061174884
52	0xbdbba0ed	-0.091615535
53	0xbd8751e4	-0.06607416
54	0xbd4731c8	-0.04863146
55	0x3d1b5587	0.037923362
56	0xbcf02541	-0.029314639
57	0x3c9d06e6	0.019168328
58	0x3d853d45	0.06505827
59	0x3df12ee0	0.11776519
60	0xbca66eb3	-0.020316457
61	0xbc8fb6b7	-0.01754318
62	0xbcc0d45a	-0.023538757
63	0x3e10f4fb	0.14155953
64	0x3de09829	0.10966522
65	0x3d511d12	0.051053114
66	0x3d8de0b1	0.06927622
67	0x3cd540dd	0.026031906
68	0x3d8dfe82	0.06933309
69	0x3d20b09f	0.03923094
70	0xbb18285c	-0.0023217415
71	0x3d8c0ab5	0.0683798
72	0x3e246352	0.16053513
73	0xbd78efec	-0.060775682
74	0xbd3bd21e	-0.04585468
75	0xbdcbd0bf	-0.099519245
76	0x3db7efdf	0.08981299
77	0x3cf43ffc	0.029815666
78	0xbd9e1412	-0.07718672
79	0xbd626945	-0.055276174
80	0xbdc96bde	-0.09835027
81	0x3d9456cd	0.072431184
82	0x3de312fa	0.11087604
83	0xbc8897a4	-0.01667387
84	0x3da5722a	0.08078416
85	0xbda283ae	-0.07935272
86	0x3dfcbdea	0.12340911
87	0x3d35f277	0.044420686
88	0x3d85ae02	0.0652733
89	0x3defb905	0.117052115
90	0x3d3a18b1	0.045433704
91	0xbdb1dcbf	-0.08684682
92	0xbc8325c2	-0.016009215
93	0xbde2a140	-0.11065912
94	0xbe05fa88	-0.13083851
95	0x3d991659	0.074749656
96	0xbd10d41b	-0.03535853
97	0x3dc01920	0.09379792
98	0x3d807d0d	0.062738515
99	0xbd7f512b	-0.062333267
100	0xba0d4911	-0.0005389611
101	0x3dd66591	0.10468591
102	0x3d0f6936	0.035012446
103	0xbd802785	-0.06257538
104	0x3d05fb40	0.032710314
105	0x3dd4d285	0.10391716
106	0xbd10e80a	-0.03537754
107	0x3dd9f9ee	0.106433734
108	0xbd6e4de1	-0.05817974
109	0x3d62e94b	0.055398267
110	0x3e246973	0.1605585
111	0xbcc4fa26	-0.024045061
112	0xbd1827e5	-0.03714742
113	0x3d2c3b9b	0.04204903
114	0x3c74176c	0.014898162
115	0x3d20abcb	0.039226335
116	0xbdf37be5	-0.118888654
117	0x3cedac80	0.029012918
118	0xbdb693d8	-0.08914918
119	0xbd496303	-0.04916669
120	0xbc018f58	-0.007907711
121	0x3d03aa71	0.032144967
122	0xbd8db53f	-0.069193356
123	0xbb7ef1b3	-0.0038901388
124	0x3dc083e4	0.09400156
125	0x3dad7329	0.08469231
126	0xbda6929b	-0.081334315
127	0xbd010a6f	-0.03150409
128	0x3cc3df44	0.023910172
129	0x3d37910b	0.044816058
130	0x3d9b38c0	0.075791836
131	0x3c7b50c9	0.015339085
132	0x3dda2683	0.10651877
133	0xbba170b3	-0.004926765
134	0x3d4eefd9	0.050521705
135	0x3acca481	0.0015612991
136	0x3d0454f2	0.032307573
137	0x3d930f6d	0.071806766
138	0x3dc08946	0.09401183
139	0xbcdf7926	-0.027279448
140	0x3d2b4375	0.04181238
141	0x3c323caa	0.010878721
142	0x3d1e94f1	0.03871626
143	0xbd8ee6f8	-0.069776475
144	0x3dc7a2e0	0.09747863
145	0xbde28386	-0.11060242
146	0x3d810349	0.06299455
147	0x3df17512	0.117899075
148	0x3d8e86a2	0.06959273
149	0x3cdb65b8	0.026781902
150	0x3c9c617f	0.019089459
151	0xbcb57766	-0.02215166
152	0xbcf65072	-0.030067656
153	0x3e05a991	0.13052966
154	0xbc8376b7	-0.016047819
155	0x3d2202cc	0.03955345
156	0x3e199df6	0.15001664
157	0x3e197a0c	0.14987963
158	0x3d40f439	0.04710791
159	0x3d62ee36	0.055402957
160	0x3d3a57b0	0.04549378
161	0x3d2b2ed3	0.041792702
162	0x3debbd53	0.1151072
163	0x3dc026a3	0.09382369
164	0x3d6185c1	0.0550592
165	0xbd887df5	-0.066646494
166	0x3dc2706c	0.09494099
167	0x3e00f941	0.12595083
168	0x3c64c56c	0.013963085
169	0x3da5eae1	0.0810144
170	0xbd7a56ae	-0.06111782
171	0x3dd7be05	0.1053429
172	0x3dafcaf0	0.08583629
173	0x3daed982	0.0853758
174	0x3dc997cd	0.09843407
175	0x3de8729a	0.113499835
176	0x3d32fa99	0.04369602
177	0x3d74f9dd	0.0598086
178	0xbd8531f5	-0.06503669
179	0x3d215f20	0.03939736
180	0xbdde498a	-0.1085387
181	0x3dd351a8	0.10318309
182	0x3b44dc9d	0.0030038722
183	0xbd663345	-0.05620124
184	0xbd671d4a	-0.056424417
185	0x3c1ec3fd	0.009690282
186	0xbd3ad975	-0.04561754
187	0xbcfb3046	-0.030662667
188	0x3e069b47	0.13145171
189	0xbc484a9b	-0.012224819
190	0x3cdee2f8	0.027207837
191	0x3e0a9bef	0.13536046
192	0xbd179523	-0.037007462
193	0x3d22342f	0.039600547
194	0x3c7c1b34	0.015387345
195	0xbc4492b7	-0.01199787
196	0xbda758ed	-0.08171258
197	0xbd454e42	-0.048170336
198	0xbd37bea4	-0.044859543
199	0x3dccd3d4	0.100013405
200	0xbdadae2a	-0.08480485
201	0x3d762a48	0.060098916
202	0x3d1e63fb	0.038669568
203	0x3e25bd37	0.16185461
204	0xbbcc0d0f	-0.0062271426
205	0x3dd9283f	0.106033795
206	0x3dd1dd58	0.10247296
207	0x3db3fb35	0.08788148
208	0xbd268ea2	-0.04066337
209	0xbda7d983	-0.08195784
210	0x3d9c2e52	0.076260224
211	0xbd3ab02e	-0.045578174
212	0x3cff3c21	0.031156601
213	0x3d4ea562	0.05045069
214	0xbd10ca3a	-0.03534911
215	0x3dbeb264	0.09311369
216	0x3dcf4f4a	0.10122545
217	0x3e00b485	0.12568863
218	0x3dd3b4b2	0.10337199
219	0x3c32490c	0.010881674
220	0x3dbe2871	0.09285057
221	0x3b64631e	0.0034849118
222	0xbdaaa752	-0.08332695
223	0x3e04dae2	0.12974122
224	0x3d1e4055	0.03863557
225	0x3cc5c777	0.024142964
226	0x3e183894	0.14865333
227	0x3dc6786c	0.096909374
228	0xbd2306de	-0.03980147
229	0xbd6656ac	-0.056235
230	0x3e0205f8	0.1269759
231	0x3dd394ab	0.103310905
232	0xbd9ca043	-0.07647755
233	0x3dd35121	0.103182085
234	0x3d7efdd7	0.0622538
235	0xbda0cbea	-0.078513935
236	0x3e0dd816	0.13851961
237	0x3dd396ab	0.10331472
238	0x3dc30cbe	0.09523915
239	0x3cb87322	0.022515837
240	0x3cf48c05	0.029851923
241	0x3e1dc30a	0.15406433
242	0x3d837d44	0.06420377
243	0x3cb3fc45	0.021970877
244	0xbdade933	-0.08491745
245	0x3d345c62	0.044033416
246	0x3d72c4a5	0.059269566
247	0xbcf5a917	-0.029987855
248	0x3deca17f	0.115542404
249	0xbcffafd7	-0.031211777
250	0x3d76c831	0.06024951
251	0xbd4a8502	-0.049443252
252	0x3da76b60	0.08174777
253	0xbbac4bd1	-0.0052580615
254	0x3e1f66e5	0.15566595
255	0x3e0935d0	0.13399434

lstm.weight_hh_l0 f4 [256, 64]
0	0xbdc33ddb	-0.09533282
1	0xbd65e32d	-0.056124855
2	0x3d30a3d2	0.04312498
3	0xbd1dd988	-0.038537532
4	0xbcb5f5d4	-0.022211947
5	0x3c9511b5	0.01819692
6	0xbd85b332	-0.065283194
7	0xbdc9f854	-0.09861818
8	0x3d9adb09	0.07561309
9	0xbda08d4a	-0.07839449
10	0x3dc96662	0.09833981
11	0x3c804a2a	0.015660364
12	0x3b42bb70	0.0029713772
13	0xbddd428a	-0.10803707
14	0x3d4ddc0b	0.050258677
15	0xbdd4413b	-0.10364004
16	0x3d8d9747	0.069136195
17	0xbd484bc2	-0.048900373
18	0x3cb4ecbc	0.02208554
19	0xbdc19bce	-0.094535455
20	0xbe079c93	-0.13243322
21	0xbd038f16	-0.03211888
22	0x3e01650a	0.126362
23	0x3c6552cb	0.01399679
24	0x3cb2f075	0.021843174
25	0x3de5bc5c	0.11217567
26	0xbd4a3948	-0.049371034
27	0xbd7c6186	-0.061616443
28	0x3ddff674	0.10935679
29	0xbbc66c31	-0.006055378
30	0x3cbab4a8	0.022791222
31	0xbd722801	-0.059120182
32	0x3ca8039a	0.02050953
33	0xbe00e8d2	-0.12588814
34	0x3d3d13d2	0.04616148
35	0xbdc014b3	-0.09378948
36	0x3d2738ca	0.040825643
37	0xbd9847f6	-0.074356005
38	0xbc8eb5be	-0.017420646
39	0xbb48ccb0	-0.0030639581
40	0xbd7e655f	-0.062108394
41	0xbbf474c0	-0.0074602067
42	0x3d85bcde	0.06530164
43	0xbdf7130c	-0.1206418
44	0x3dda7e62	0.10668637
45	0xbdb00811	-0.085952885
46	0x3dda23f4	0.10651389
47	0x3c967e8f	0.018370895
48	0x3da2f1e5	0.07956294
49	0x3a75523d	0.0009358263
50	0x3d3d0b2c	0.046153232
51	0x3d4931fb	0.04911993
52	0xbe113b04	-0.14182669
53	0x3c5c075c	0.013429489
54	0x3e0da466	0.13832244
55	0x3cbf076c	0.023318969
56	0xbdb7aa38	-0.089680135
57	0x3d91173f	0.07084512
58	0xbc916102	-0.017746452
59	0x3d2d378e	0.04228931
60	0x3d8b5f74	0.068053156
61	0x3d880eaa	0.06643422
62	0x3c3627eb	0.011117916
63	0x3d7d79da	0.061883785
64	0x3c55f58c	0.013059031
65	0x3d5a8f95	0.053359587
66	0xbdd71bd1	-0.105033524
67	0x3c314483	0.010819557
68	0xbda23e7b	-0.079220735
69	0x3c4c99e2	0.01248786
70	0xbd1fc44b	-0.03900556
71	0x3dad3386	0.08457093
72	0xbceb10a2	-0.028694455
73	0x3dcbcf04	0.099515945
74	0xbd10b286	-0.035326503
75	0xbd4525bb	-0.048131686
76	0xbdb1eca6	-0.08687715
77	0x3c916704	0.017749317
78	0x3b669c49	0.0035188368
79	0xbddb711b	-0.107149325
80	0x3de1d8ed	0.110277034
81	0xbdd06277	-0.10175031
82	0x3c9913d3	0.01868621
83	0x3dc2727d	0.09494493
84	0x3d411618	0.04714021
85	0xbdd87466	-0.10569076
86	0xbdcf7c8b	-0.101311766
87	0xbcd53542	-0.026026372
88	0x3db6a6db	0.08918544
89	0x3be03d26	0.006843227
90	0x3d804466	0.06263046
91	0x3c4a37cb	0.012342404
92	0x3bf68327	0.007522959
93	0xbcc1e6be	-0.023669597
94	0xbcf1431f	-0.029450951
95	0xbe08c442	-0.13356116
96	0x3d83c520	0.06434083
97	0xbd91027f	-0.07080554
98	0xbda4256a	-0.08014949
99	0xbd02de94	-0.03195055
100	0x3dd58fa6	0.104277894
101	0x3cd93384	0.026513822
102	0xbdab3cb1	-0.08361185
103	0x3d62e99d	0.055398572
104	0x3d9dc79f	0.0770409
105	0x3d5d2a0a	0.05399517
106	0x3dfca8c8	0.1233688
107	0xbe11ae0c	-0.1422655
108	0x3dc3c15a	0.09558363
109	0xbdcb8c1e	-0.099388346
110	0x3cc92cce	0.024557497
111	0x3e07608e	0.13220426
112	0xbcf681c7	-0.03009118
113	0x3d58f00a	0.052963294
114	0x3ddb68a3	0.10713317
115	0x3dbe4191	0.092898495
116	0xbe030752	-0.12795761
117	0x3dfdf5d5	0.12400404
118	0x3d6d85c3	0.057988893
119	0xbd8c78a5	-0.068589486
120	0xbbe04d82	-0.006845177
121	0x3d923179	0.071383424
122	0xbd355494	-0.044270113
123	0xbd96045d	-0.07325051
124	0xbe092eee	-0.13396809
125	0x3d715319	0.05891714
126	0xbd20abe7	-0.03922644
127	0xbd45c23e	-0.048280947
128	0xbe0beca4	-0.1366449
129	0xbcd41115	-0.025887052
130	0xbc378a55	-0.0112024145
131	0xbda166a4	-0.07880905
132	0x3d8f76e8	0.070051014
133	0x3dcf6400	0.10126495
134	0xbd972409	-0.0737992
135	0xbd77b1cf	-0.060472306
136	0x3d76c4e9	0.060246382
137	0x3e0182a3	0.1264749
138	0xbcab6225	-0.020920822
139	0xbd8a17b5	-0.06742803
140	0x3c29ff05	0.010375743
141	0x3d7f9acf	0.062403496
142	0x3d901bf0	0.07036579
143	0xbdba96d7	-0.09110802
144	0x3dad764d	0.0846983
145	0x3d6099d4	0.054834202
146	0x3c2ef7c9	0.010679194
147	0x3c46d464	0.012135599
148	0x3dcf088c	0.10109052
149	0x3dbb1115	0.091341175
150	0x3d8416f1	0.06449688
151	0x3d82b548	0.06382233
152	0xbd6058a0	-0.05477202
153	0x3d8a4fc7	0.067534976
154	0xbcc49957	-0.0239989
155	0xbd5737a0	-0.052543283
156	0xbd56de6e	-0.05245822
157	0xbd81f66b	-0.063458286
158	0x3d396af2	0.045268007
159	0xbcfc1b27	-0.030774666
160	0xbd285d77	-0.04110476
161	0xbd6a124f	-0.057146367
162	0xbd7c7b9b	-0.061641317
163	0xbcf0891b	-0.029362252
164	0x3de4bdcb	0.11169013
165	0x3d859747	0.065229945
166	0xbd408c70	-0.04700893
167	0x3d58c5ba	0.05292294
168	0xbde29c9b	-0.110650264
169	0x3db1894b	0.08668765
170	0xbd97ffcb	-0.074218355
171	0x3cd8415c	0.026398353
172	0x3d78cfe3	0.06074513
173	0xbd341ead	-0.043974567
174	0x3d1d7f78	0.03845164
175	0xbd3a42cd	-0.045473862
176	0x3dbbccac	0.091698974
177	0xbdacb5f6	-0.08433144
178	0xbd31c115	-0.043397028
179	0xbdef8dfb	-0.116970025
180	0xbdb14662	-0.086560026
181	0x3d1a2d89	0.037641082
182	0xbd49f775	-0.04930826
183	0xbdbaa19c	-0.09112856
184	0xbdf63c4b	-0.12023219
185	0xbda7ee54	-0.08199754
186	0xbd364b7d	-0.044505585
187	0x3bd95e9b	0.0066335923
188	0xbc55399d	-0.013014224
189	0x3e06e19c	0.13172
190	0xbd263d17	-0.040585604
191	0x3dff4b3d	0.124655224
192	0x3d95cacf	0.07314073
193	0xbd0cc9b9	-0.034372065
194	0xbd003536	-0.031300746
195	0x3b0870eb	0.0020819257
196	0x3d7c52b7	0.06160232
197	0xba27b96f	-0.0006398176
198	0xbdd6243a	-0.104561284
199	0x3db3d178	0.08780187
200	0xbde9865e	-0.11402582
201	0x3d2f51de	0.042802684
202	0xbd09f6de	-0.033682697
203	0x3d9fec5e	0.07808755
204	0xbd9b9c96	-0.07598226
205	0x3c5e5fb7	0.013572625
206	0xbda46471	-0.0802697
207	0xba38c082	-0.0007047729
208	0xbd244fda	-0.040115215
209	0xbd9973d6	-0.07492797
210	0x3de300a9	0.1108411
211	0x3d91baf8	0.071157396
212	0xbc0efd1d	-0.008727339
213	0x3d8e7adc	0.06957027
214	0x3c8498c6	0.01618613
215	0xbd909435	-0.07059518
216	0xbdd52cc5	-0.1040893
217	0xbcf06d52	-0.029349003
218	0x3db9f0d6	0.09079139
219	0xbcffbbb8	-0.031217441
220	0xbccef75c	-0.025264435
221	0x3d0ec8a9	0.034859333
222	0xbdcebf14	-0.10095039
223	0x3baa6209	0.005199675
224	0x3dbcf1ff	0.092258446
225	0x3cfd6ab2	0.030934665
226	0x3c6108cd	0.013735008
227	0xbd4744e6	-0.04864969
228	0xbd8840e0	-0.06652999
229	0xbe1e49d2	-0.15457848
230	0x3ca1952f	0.019724457
231	0xbd7668fd	-0.06015872
232	0x3d3ed3e0	0.04658878
233	0x3d8c85a6	0.06861429
234	0xbe07ab56	-0.13248953
235	0x3a29d890	0.00064791087
236	0xbbe8f8cc	-0.007109737
237	0xbcd9905c	-0.026558094
238	0xba83a082	-0.0010042342
239	0xbcac265b	-0.021014383
240	0x3d2e7540	0.042592287
241	0x3cf9a225	0.030472824
242	0xbddaee75	-0.10690013
243	0xbc661e56	-0.014045319
244	0x3d85520d	0.065097906
245	0x3e005329	0.12531723
246	0xbda09f29	-0.078428574
247	0x3e055284	0.13019758
248	0xbdec40cd	-0.11535797
249	0x3d43c356	0.04779371
250	0x3dbb2223	0.091373704
251	0x3db35861	0.08757091
252	0xbd94b545	-0.07261137
253	0x3b21f2c5	0.0024711352
254	0x3d6ea2ce	0.05826073
255	0x3e0eea30	0.13956523

lstm.bias_ih_l0 f4 [256]
0	0x3cb42a3a	0.021992791
1	0xbdc85b69	-0.0978306
2	0x3dc60f23	0.09670856
3	0xbcd8980e	-0.026439693
4	0xbc87e8b5	-0.016590456
5	0x3d42042e	0.047367267
6	0xbd2f41ae	-0.042787246
7	0x3e187462	0.14888147
8	0x3dc23eee	0.09484659
9	0xbc583124	-0.01319531
10	0xbd333b89	-0.04375795
11	0xbca218fd	-0.019787306
12	0x3dda7dbe	0.10668515
13	0xbdcaeeb4	-0.0990881
14	0xbddcdde5	-0.107845105
15	0xbdaa1330	-0.08304441
16	0x3e0e8617	0.13918339
17	0xbe0d5a49	-0.13803972
18	0x3d563f00	0.052306175
19	0xbce9e46a	-0.0285513
20	0x3d6e7251	0.05821449
21	0x3cc367f8	0.023853287
22	0x3d1cec9b	0.038311582
23	0xbd83f8c2	-0.06443931
24	0x3d383602	0.04497338
25	0x3c8c5557	0.017130537
26	0xbccc994c	-0.024975441
27	0xbe051570	-0.12996459
28	0x3d9a6ce0	0.075402975
29	0x3dec2db3	0.11532154
30	0xbd1a1787	-0.037620094
31	0xbd9a2bb2	-0.075278655
32	0x3cc141e7	0.023590995
33	0x3d9ab373	0.075537585
34	0xbcd3387c	-0.02578377
35	0xbc85dc5f	-0.016340433
36	0xbcb8e508	-0.022570148
37	0xbd28548a	-0.041096248
38	0x3da6f2c2	0.08151771
39	0xbb85a1e7	-0.004078138
40	0xbd026a26	-0.031839512
41	0x3cbf7edb	0.02337592
42	0xbd9347f2	-0.07191457
43	0xbba24d9e	-0.0049531003
44	0xbd4b7b84	-0.04967834
45	0x3dd5c64c	0.10438213
46	0xbd5ace84	-0.053419605
47	0xbdb4b610	-0.08823788
48	0xbd9c8f4b	-0.076445185
49	0xbdaf10c3	-0.08548119
50	0x3bf81e42	0.0075719664
51	0xbd3e300d	-0.046432544
52	0xbc533e42	-0.012893261
53	0x3d6ec0c8	0.05828932
54	0x3c80a2a5	0.015702555
55	0x3d36cce8	0.044629008
56	0xbe070f51	-0.13189436
57	0x3d73065e	0.059332244
58	0x3dfb20d1	0.122621186
59	0x3db4adfd	0.08822248
60	0xbd6c09e5	-0.057626624
61	0x3d8da6f2	0.06916608
62	0xbd765056	-0.060135208
63	0x3d8b217f	0.06793498
64	0xbc9332d8	-0.01796858
65	0xbdebf36d	-0.11521039
66	0xbddb4601	-0.107067116
67	0x3d95bb40	0.07311106
68	0x3c319c88	0.010840543
69	0xbd36bac8	-0.044611722
70	0x3c6cc724	0.014451776
71	0xbaa4871d	-0.0012552474
72	0x3d694c87	0.056957748
73	0x3dc91f0b	0.09820374
74	0xbdbdb67a	-0.0926332
75	0xbd45bd39	-0.04827616
76	0xbd93e981	-0.07222272
77	0xbe0c8def	-0.13726018
78	0x3d960506	0.07325177
79	0x3d4af7ca	0.049552716
80	0x3d8ac999	0.06776733
81	0xbd9e9eb1	-0.07745112
82	0xbd8ae27b	-0.06781479
83	0x3e013d2b	0.1262099
84	0x3c452a41	0.012034
85	0xbd8f07d5	-0.06983916
86	0x3cd7c6f8	0.026339993
87	0x3d394c63	0.045238864
88	0x3e1b668a	0.15175834
89	0x3b22a617	0.0024818236
90	0xbd3c6941	-0.045998815
91	0xbda1bcdf	-0.078973524
92	0x3bccfbf1	0.0062556197
93	0x3cb6fde9	0.02233787
94	0x3c801f6f	0.015639989
95	0x3db0625b	0.0861251
96	0xbc5ec0b6	-0.013595751
97	0xbdd046cf	-0.10169756
98	0x3bf46e5c	0.007459445
99	0x3e0d45dd	0.13796182
100	0xbb66a66d	-0.0035194412
101	0x3d962f1e	0.07333206
102	0xbde9b1a9	-0.11410839
103	0xbd38aac4	-0.04508473
104	0xbd7e0874	-0.06201978
105	0xbdf8a306	-0.12140469
106	0xbc40b84e	-0.011762692
107	0xbd9cf268	-0.07663423
108	0xbdeb78c0	-0.114976406
109	0xbd9889eb	-0.07448181
110	0xbdb48d44	-0.08816007
111	0x3de72d0b	0.11287888
112	0x3bbe4f8f	0.005807824
113	0x3dd15411	0.102211125
114	0xbc48b553	-0.012250262
115	0x3e0ccf88	0.13751042
116	0xbc775781	-0.015096546
117	0xbcfbbc17	-0.030729337
118	0xbc2dd6b6	-0.010610273
119	0x3c7d8ceb	0.015475492
120	0xbdb21ed6	-0.08697288
121	0xbdb78430	-0.0896076
122	0xbccc8091	-0.024963649
123	0x3d3f32c3	0.04667927
124	0x3dca8bef	0.098899715
125	0xbc672630	-0.014108226
126	0x3e1d2b8c	0.15348643
127	0xbd90ce98	-0.07070655
128	0x3d8c516e	0.06851469
129	0x3d49f460	0.04930532
130	0x3c11ddb2	0.008902954
131	0x3d16b46a	0.03679315
132	0x3cae1977	0.021252377
133	0xbb3b76d4	-0.0028604763
134	0x3d863c90	0.0655452
135	0x3d8ef3b4	0.069800764
136	0xbd93be4a	-0.07214029
137	0xbc670c08	-0.01410199
138	0x3e15c3bc	0.14625448
139	0x3d35b419	0.044361208
140	0xbd88d865	-0.06681899
141	0xbdcb00e0	-0.09912276
142	0x3d96656f	0.07343566
143	0xbddff62a	-0.10935624
144	0xbc86e969	-0.01646872
145	0xbdb53232	-0.088474646
146	0xbcac28ae	-0.021015491
147	0xbc181059	-0.009281241
148	0xbd638350	-0.05554515
149	0x3dab4196	0.08362119
150	0xbe1ba211	-0.15198542
151	0xbd11e26d	-0.035616327
152	0x3ca2e624	0.01988513
153	0xbb45a3b7	-0.0030157396
154	0xbde58855	-0.11207644
155	0x3dbefcbb	0.09325548
156	0x3d126e1a	0.035749532
157	0xbdb71cd8	-0.089410484
158	0xbd672a7f	-0.05643701
159	0x3dcc459b	0.09974214
160	0xbd807cca	-0.062738016
161	0x3dfb4ba3	0.12270286
162	0xbd82099e	-0.063494906
163	0xbce9fb5b	-0.028562238
164	0xbdb805b7	-0.08985465
165	0xbb9deb42	-0.0048193047
166	0x3ca4aad7	0.020100994
167	0xbc5a9f33	-0.01334362
168	0x3cd5e9ac	0.0261124
169	0x3d823cfa	0.063592866
170	0x3d6f625c	0.058443412
171	0xbc6e59db	-0.01454779
172	0xbcce8147	-0.025208129
173	0x3cef011d	0.029175336
174	0xbda3d464	-0.07999495
175	0xbd4a0b89	-0.049327407
176	0xbdc9364b	-0.09824809
177	0xbc5401bb	-0.012939866
178	0x3dcde68b	0.10053738
179	0x3d11b2b9	0.035570834
180	0x3c29a632	0.010354565
181	0x3e181097	0.14850079
182	0xbbad4c8e	-0.005288667
183	0x3db314f3	0.0874423
184	0x3dd8a625	0.105785646
185	0x3ae79215	0.0017667437
186	0xbda0573b	-0.07829138
187	0x3d8badff	0.068202965
188	0x3d39a9b1	0.045327846
189	0xbd6883fd	-0.0567665
190	0x3d13ed77	0.036115136
191	0x3d1e8c02	0.03870774
192	0xbcfc81fb	-0.030823698
193	0x3d949c72	0.07256402
194	0x3d9bc0e0	0.07605147
195	0x3dbf3712	0.09336676
196	0xbde955e2	-0.11393334
197	0x3dd49d2e	0.10381542
198	0x3d47ce88	0.048780948
199	0x3bcf549b	0.0063272244
200	0xbc13d630	-0.009023234
201	0x3d4da322	0.050204404
202	0xbc9be6d3	-0.019030964
203	0x3d93fec7	0.07226329
204	0xbdcb1cab	-0.09917577
205	0xbddaced7	-0.10683983
206	0xbd65dda8	-0.05611959
207	0x3d62a92e	0.055337124
208	0x3db47d54	0.08812967
209	0x3bb3ef12	0.005491146
210	0xbce21028	-0.027595595
211	0xbdb4e14f	-0.08832037
212	0x3b006c77	0.00195959
213	0x3dc1ed9f	0.09469151
214	0x3d3a73d2	0.04552061
215	0x3d899296	0.06717412
216	0x3e0190b2	0.12652853
217	0xbe0352f9	-0.1282462
218	0x3c9701e0	0.018433511
219	0x3d1b4baf	0.037913974
220	0x3dae58ad	0.08513007
221	0x3d3751e3	0.044755828
222	0x3e06acc3	0.13151841
223	0xbd19cfa8	-0.037551552
224	0x3a9e3431	0.0012069998
225	0xbd10fee6	-0.03539934
226	0xbd835e90	-0.06414521
227	0xbd31a038	-0.043365687
228	0x3d50f6e2	0.051016696
229	0xbdadf30f	-0.084936254
230	0xbcbfc1f0	-0.023407906
231	0x3db66c6a	0.08907397
232	0x3ca0a887	0.01961161
233	0xbd7b78ae	-0.061394386
234	0xbbba9ceb	-0.0056949756
235	0x3d97f5fc	0.07419965
236	0x3da02b40	0.07820749
237	0xbdc97a29	-0.09837753
238	0xbdacea07	-0.08443075
239	0x3e045ffc	0.1292724
240	0xbe11e021	-0.14245655
241	0xbdd8a4bc	-0.105782956
242	0xbdf0ed2d	-0.11763988
243	0x3d492927	0.04911151
244	0x3e136efd	0.14397807
245	0xbd179ced	-0.03701489
246	0xbd6bee3c	-0.057600245
247	0x3d877414	0.06613937
248	0xbdcc82be	-0.099858746
249	0x3dbe89fc	0.09303662
250	0xbc7c619c	-0.015404131
251	0xbd3a2878	-0.04544875
252	0xbcdfa7aa	-0.027301628
253	0x3d17b569	0.03703824
254	0xbd2434ac	-0.040089294
255	0xbd9d3a15	-0.07677094

lstm.bias_hh_l0 f4 [256]
0	0x3ca8bc2b	0.020597538
1	0xbe0b31d1	-0.13593222
2	0xbbc612e2	-0.0060447315
3	0xbc99b083	-0.018760925
4	0x3d895dfe	0.06707381
5	0x3d9e141d	0.0771868
6	0xbd81d086	-0.06338601
7	0x3dc6bc1b	0.09703847
8	0xbdcb7482	-0.099343315
9	0xbd90291c	-0.07039091
10	0xbb30be76	-0.0026968992
11	0xbc9f288a	-0.01942851
12	0xbd48a504	-0.048985496
13	0xbdc0c9a8	-0.09413463
14	0xbd37652c	-0.04477422
15	0xbd802967	-0.06257897
16	0x3e0fc454	0.14039737
17	0xbdc8adf1	-0.09798802
18	0x3ce0869f	0.027407942
19	0xbd473598	-0.048635095
20	0x3bfe875c	0.007767601
21	0x3c548222	0.012970479
22	0xbd214579	-0.039372895
23	0x3d0f992f	0.035058197
24	0x3d3362e1	0.04379547
25	0xbd07b7cb	-0.033134263
26	0xbdc81685	-0.0976992
27	0xbd61c84b	-0.055122655
28	0x3def175d	0.11674378
29	0x3d012152	0.031525917
30	0x3d81eb7a	0.06343742
31	0xbe11d12c	-0.14239949
32	0x3d1b8fb9	0.03797886
33	0xbdb8eade	-0.09029172
34	0x3e161de8	0.14659846
35	0x3dcb1698	0.09916419
36	0x3db55a75	0.08855144
37	0xbc97a4fe	-0.018511292
38	0x3d929d42	0.07158901
39	0x3d89f874	0.06736842
40	0x3d933504	0.07187846
41	0xbdbbdfd4	-0.09173551
42	0x3d9663db	0.07343265
43	0x3d79bed8	0.06097302
44	0xbbc3543a	-0.0059609683
45	0xbda7ffbc	-0.08203074
46	0xbdb38a3e	-0.08766602
47	0xbd5ba424	-0.053623334
48	0x3cdf8d6b	0.027289113
49	0xbc966f6b	-0.018363675
50	0xbe02b0bf	-0.12762736
51	0x3dfe45e2	0.12415673
52	0x3c71cb48	0.014757939
53	0xbc9e7536	-0.019343
54	0xbdc1ccbc	-0.09462878
55	0x3e0b6d2a	0.13615862
56	0xbe0083a2	-0.12550214
57	0x3d8aff88	0.0678702
58	0x3db17272	0.08664407
59	0x3d40227f	0.046907898
60	0x3be86407	0.0070920023
61	0xbdc29702	-0.09501459
62	0xbc945fe8	-0.018112138
63	0xbd1e98eb	-0.038720053
64	0xbd13624b	-0.03598241
65	0xbcff6c12	-0.031179462
66	0x3dd94e71	0.10610665
67	0x3d7b58b0	0.061363876
68	0x3d66c128	0.056336552
69	0x3dbd462a	0.09241898
70	0xbd8b80e2	-0.06811692
71	0x3e13b09e	0.14422843
72	0xbc05e965	-0.008173321
73	0xbb902fe1	-0.004400239
74	0xbce7616c	-0.028244697
75	0x3c75b9c4	0.014997903
76	0x3c772c47	0.01508624
77	0x3dd2f5c1	0.1030078
78	0xbdafab26	-0.08577566
79	0x3d931188	0.07181078
80	0x3d7a0aaf	0.061045345
81	0xbe043135	-0.12909396
82	0x3d6f24c5	0.058384676
83	0xbd6db3b4	-0.058032706
84	0xbd1d99e9	-0.03847686
85	0xbb392f9e	-0.0028257142
86	0x3de84dd3	0.11342969
87	0xbcc99f7b	-0.024612179
88	0x3af2eead	0.0018534266
89	0x3dc80be0	0.0976789
90	0x3dcc7805	0.099838294
91	0xbd55a1af	-0.052156147
92	0x3dd84186	0.105593726
93	0xbd957539	-0.07297749
94	0x3de4c4be	0.11170338
95	0xbd331388	-0.0437198
96	0x3da132ba	0.078710034
97	0x3d87e37a	0.066351846
98	0x3d6da436	0.058017932
99	0x3d973e4f	0.07384931
100	0x3d9c09e3	0.07619073
101	0x3dc1a0a2	0.094544664
102	0x3d81d7b0	0.06339967
103	0xbaf35bd3	-0.0018566794
104	0xbc60b7d6	-0.013715705
105	0xbc204982	-0.009783151
106	0xbd3a546b	-0.045490663
107	0x3db05870	0.08610618
108	0xbce91bac	-0.028455578
109	0xbd89d368	-0.06729776
110	0x3dc241b8	0.09485191
111	0x3bdd4c04	0.0067534465
112	0x3da5aecb	0.0808998
113	0xbda1aaed	-0.0789393
114	0x3d4820a3	0.04885925
115	0x3cc08d2c	0.023504816
116	0x3d75116e	0.059831075
117	0x3cf4d03f	0.029884456
118	0x3d795811	0.060875002
119	0x3d4bbcee	0.049740724
120	0x3dc0de3c	0.09417388
121	0xbdb27d3e	-0.08715294
122	0x3d3e6bf2	0.046489663
123	0xbd860673	-0.06544199
124	0xbda36e35	-0.07980005
125	0xbde1b324	-0.110204965
126	0x3de47bb7	0.11156409
127	0x3de35760	0.1110065
128	0x3c48fdb0	0.012267515
129	0xbde89a39	-0.11357541
130	0x3d14f696	0.036367975
131	0xbdade0f5	-0.08490173
132	0x3d045035	0.032303054
133	0xbdb74d93	-0.08950343
134	0xbd91c5ea	-0.07117827
135	0xbd5e2bea	-0.0542411
136	0xbd986e5d	-0.07442925
137	0xbd9a81f7	-0.0754432
138	0x3d4090dd	0.047013152
139	0xbc751b19	-0.014960074
140	0xbcbd8231	-0.02313337
141	0x3d8da50e	0.06916247
142	0x3d7f652f	0.062352356
143	0xbe096d89	-0.1342069
144	0xbe0a530a	-0.1350824
145	0xbd1368e7	-0.035988715
146	0xbde19cca	-0.11016233
147	0xbdfdbb19	-0.12389202
148	0x3db285c4	0.0871692
149	0x3dade8ab	0.084916435
150	0x3db209a6	0.086932465
151	0xbdd62308	-0.104559004
152	0xbd950280	-0.072758675
153	0xbd20479f	-0.039130803
154	0x3d3bd3a4	0.045856133
155	0xbcce4242	-0.025178079
156	0x3cfa138d	0.0305269
157	0xbdd5d7d0	-0.104415536
158	0xbd4df223	-0.050279748
159	0xbc58c962	-0.013231607
160	0x3c8f0cd1	0.017462166
161	0xbdaeb635	-0.08530847
162	0xbd895aa4	-0.067067415
163	0x3d86e9d5	0.06587569
164	0xbd77d72e	-0.060507946
165	0x3d47f6b9	0.048819277
166	0xbd83c905	-0.06434826
167	0x3cbb1117	0.022835298
168	0x3c90be59	0.01766889
169	0xbd4ab4c1	-0.049488787
170	0xbcbe1916	-0.023205321
171	0x3db69386	0.089148566
172	0xbd45183c	-0.048118815
173	0x3ac87794	0.0015294426
174	0x3c33a426	0.010964429
175	0xbcd8c3de	-0.026460584
176	0xbd825ffb	-0.06365963
177	0x3df6d6e4	0.12052706
178	0xbd64fdbc	-0.055906042
179	0x3d58d2c5	0.05293538
180	0x3ddff6c5	0.109357394
181	0xbdc5953b	-0.09647604
182	0xbdb773d7	-0.089576416
183	0x3e10cf82	0.14141658
184	0xbd7d883b	-0.061897498
185	0xbd85187d	-0.064988114
186	0xbdd2af5b	-0.10287353
187	0xbdbdf330	-0.092749
188	0xbdf95989	-0.121752806
189	0x3dc80438	0.0976643
190	0xbe0e659c	-0.13905948
191	0x3e0a4b2c	0.13505238
192	0xbd090b6b	-0.033458155
193	0xbd8c93f7	-0.068641596
194	0x3dc5bb5e	0.09654878
195	0xbda7122c	-0.08157763
196	0xbdb464c0	-0.08808279
197	0x3da99806	0.08280949
198	0xbcd943ef	-0.026521651
199	0xbd15882d	-0.03650682
200	0x3d40c1d1	0.047059838
201	0xba8805ac	-0.0010377667
202	0x3de9434a	0.113897875
203	0x3d9b503c	0.07583663
204	0x3ddf13b9	0.10892434
205	0x3dca86ff	0.0988903
206	0xbdc0e7b3	-0.09419193
207	0x3d919855	0.07109133
208	0x3d3433b3	0.043994617
209	0xbd8eaf77	-0.06967061
210	0xbdbc7f36	-0.09203951
211	0xbda5d2eb	-0.0809687
212	0x3d0d384f	0.03447753
213	0x3e08a399	0.13343658
214	0xb9e8f15d	-0.00044430318
215	0xbd93a8fa	-0.07209964
216	0x3db8ffc1	0.09033156
217	0x3dbbb619	0.09165592
218	0x3d44aeb4	0.048018172
219	0xbd508b95	-0.050914366
220	0x3ded9b9b	0.11601945
221	0xbd171cc2	-0.03689266
222	0x3cf60f1b	0.0300365
223	0xbd77b79f	-0.06047785
224	0x3d4c0d27	0.04981723
225	0x3e05de89	0.13073172
226	0x3d69896d	0.057015825
227	0x3de90303	0.113775276
228	0x3dd82e57	0.105557136
229	0x3d8d9568	0.069132626
230	0xbdd1c12c	-0.10241923
231	0xbccf2fa5	-0.025291273
232	0x3d99845b	0.07495948
233	0x3db5c153	0.08874764
234	0xbdbd0875	-0.09230129
235	0xbd401e32	-0.046903796
236	0xbc0b6fbd	-0.008510527
237	0xbdc33819	-0.09532184
238	0x3dee28cb	0.116288744
239	0xbd427762	-0.047477134
240	0x3c5180c6	0.01278705
241	0x3e01b38c	0.12666148
242	0x3d3430c9	0.043991838
243	0x3e100c0e	0.14067098
244	0x3d4c273b	0.0498421
245	0xbde3faa3	-0.111317895
246	0x3d932eaf	0.071866386
247	0x3a9c5044	0.0011925776
248	0x3d8599e8	0.06523496
249	0xbba9e774	-0.005185062
250	0x3cefe3d7	0.029283447
251	0x3d9e734f	0.07736837
252	0xbde1276c	-0.10993847
253	0xbdc14e48	-0.09438759
254	0x3db6c986	0.08925156
255	0xbd470743	-0.04859091

fc.weight f4 [3, 64]
0	0xbdc22db9	-0.09481377
1	0x3da606bc	0.08106753
2	0xbd7d8af0	-0.06190008
3	0x3da89198	0.08230895
4	0x3d925498	0.07145041
5	0x3d53420d	0.051576663
6	0xbdcc06d6	-0.09962241
7	0x3cb30935	0.021854976
8	0xbde2c727	-0.110731415
9	0x3db7fb67	0.08983498
10	0x3db6d723	0.08927753
11	0x3dc2cd38	0.095117986
12	0x3dca0046	0.098633334
13	0x3c35c9a1	0.011095435
14	0xbd43fba8	-0.04784742
15	0xbe12a204	-0.14319617
16	0xbdceb794	-0.100936085
17	0xbcda4654	-0.026644863
18	0x3d9168c4	0.071000606
19	0xbd89ae9f	-0.067227595
20	0x3d7f368d	0.062307883
21	0xbcaa77e2	-0.020809118
22	0xbe176d58	-0.14787805
23	0x3d9eded8	0.07757348
24	0xbdd42b79	-0.10359854
25	0xbd35d745	-0.04439475
26	0xbd1dcc01	-0.03852463
27	0x3d03b529	0.03215519
28	0x3d64a88d	0.055824805
29	0xbe0885f7	-0.13332354
30	0xbe0614cd	-0.13093872
31	0xbd6b41d0	-0.05743581
32	0xbda6b75b	-0.08140441
33	0x3ccdc6b5	0.025119165
34	0xbd6a1ea4	-0.057158127
35	0x3cddf658	0.027095005
36	0xbe2069fe	-0.15665433
37	0x3d474a13	0.048654627
38	0xbd3961b4	-0.045259193
39	0xbde4043d	-0.11133621
40	0xbb5c036b	-0.0033571373
41	0x3d54c686	0.05194714
42	0xbd0034b6	-0.03130027
43	0x3c90b8c5	0.01766623
44	0xbdb8c8bc	-0.09022662
45	0xbd8e92fa	-0.06961627
46	0xbd8d279e	-0.06892322
47	0xbd4bbc33	-0.049740028
48	0x3ca428ad	0.020038927
49	0x3dfe17c2	0.12406875
50	0x3da712b0	0.08157861
51	0x3d43418a	0.047669925
52	0x3bda8dac	0.0066697206
53	0x3dce8273	0.10083475
54	0xbd814265	-0.06311492
55	0x3e209211	0.1568072
56	0x3db05c04	0.086113006
57	0xbcc98c76	-0.02460311
58	0xbd308a22	-0.043100484
59	0x3dbcd814	0.09220901
60	0xbc1a6a4e	-0.009424759
61	0xbc5db66a	-0.01353226
62	0xbe23cd21	-0.15996219
63	0xbc26a6ae	-0.0101715755
64	0xbd74fbb8	-0.05981037
65	0xbdb22179	-0.08697791
66	0xbd1e4d2b	-0.03864781
67	0x3d9825d1	0.07429088
68	0x3de260ff	0.11053657
69	0xbe08af43	-0.13348107
70	0xbda066e3	-0.07832124
71	0x3dc86e70	0.09786689
72	0x3d9ef239	0.07761044
73	0x3d94900e	0.07254039
74	0x3d7b9385	0.061419982
75	0xbc35ebd8	-0.011103593
76	0xbdf28b30	-0.11842954
77	0xbdbaa6c8	-0.09113842
78	0x3c2ed522	0.010670932
79	0xbd21a3d1	-0.039462868
80	0xbdde14f8	-0.10843843
81	0xbcbd982f	-0.023143856
82	0xbd56bbfc	-0.05242537
83	0xbe039bc5	-0.1285239
84	0xbd993a3b	-0.0748181
85	0x3d8f3955	0.06993357
86	0xbde620c5	-0.11236719
87	0xbdd8f3d5	-0.10593382
88	0xbdf9ff67	-0.12206917
89	0x3dc5a71f	0.096510164
90	0x3dcee01a	0.10101338
91	0xbdf459fe	-0.11931227
92	0xbc0fc4d4	-0.008774955
93	0xbe06caba	-0.13163272
94	0x3cf3d5b5	0.02976499
95	0x3c1fb894	0.009748597
96	0xbe2836d8	-0.16427171
97	0x3c7e1191	0.015507118
98	0xbe005285	-0.12531479
99	0x3df0787c	0.117417306
100	0xbd1c1112	-0.038102217
101	0xbdf578df	-0.11985945
102	0xbdd58890	-0.10426438
103	0xbc4b5dde	-0.012412516
104	0x3dcae5ad	0.099070884
105	0xbcbf1513	-0.023325479
106	0xbcbb3189	-0.022850769
107	0xbc5fbddc	-0.013656106
108	0xbdf69dd9	-0.12041826
109	0xbb2efb99	-0.0026700257
110	0x3ccc2524	0.024920054
111	0xbd8e4362	-0.06946446
112	0x3de30c70	0.11086357
113	0xbd0f12fd	-0.034930218
114	0x3dae2d3e	0.08504723
115	0x3d73a051	0.05947906
116	0x3dadc318	0.08484477
117	0x3d80685e	0.062699065
118	0xbd806986	-0.06270127
119	0xbd5c7195	-0.053819258
120	0x3cf6b672	0.030116294
121	0x3dc37644	0.09544042
122	0xbe0e29e5	-0.13883169
123	0xbc2bd6b1	-0.010488198
124	0x3d357be9	0.044307623
125	0x3ca979f6	0.020688038
126	0xbd2adcf0	-0.04171461
127	0x3dbf0af9	0.09328265
128	0xb9d218ef	-0.00040072898
129	0xbcbc3310	-0.022973567
130	0xbdd63244	-0.10458806
131	0x3d0803c6	0.033206724
132	0xbd3154d0	-0.043293774
133	0xbd8cdb88	-0.0687781
134	0xbcd030b1	-0.025413843
135	0x3dacf884	0.08445838
136	0xbdcdc08f	-0.10046493
137	0xbdce768f	-0.10081207
138	0x3c3ec140	0.011642754
139	0x3dc063b5	0.093940176
140	0xbe0f7fae	-0.1401355
141	0x3dcdf6b2	0.10056819
142	0x3d9e5938	0.07731861
143	0x3d975020	0.073883295
144	0xbe1c888d	-0.15286465
145	0xbc93a5df	-0.01802343
146	0x3d2fe850	0.04294616
147	0x3d2d1daf	0.042264637
148	0x3dfd4de4	0.12368372
149	0x3ddb4695	0.10706822
150	0xbdcbace4	-0.09945086
151	0x3d4405bd	0.047857035
152	0xbd7f2fe0	-0.062301517
153	0x3db50797	0.08839338
154	0xbde63b63	-0.11241796
155	0x3d33435f	0.043765422
156	0xbe18a666	-0.14907226
157	0xbcd52695	-0.026019374
158	0xbd6c2ded	-0.057660986
159	0xbd80cd5d	-0.0628917
160	0xbdcf7ae2	-0.1013086
161	0x3df18e9d	0.117947794
162	0xbe08b276	-0.13349327
163	0x3d21492e	0.03937643
164	0x3d90590c	0.07048234
165	0x3daa66c2	0.08320381
166	0xbd4fb824	-0.05071272
167	0xbd91fc6f	-0.07128226
168	0xbd217b87	-0.039424445
169	0x3daebac9	0.0853172
170	0xbdab4dd4	-0.08364454
171	0x3dca9777	0.09892171
172	0x3d1693f8	0.036762208
173	0xbd9ef3f9	-0.07761378
174	0xbc4cc0a9	-0.012497106
175	0xbd0ec828	-0.034858853
176	0xbdb1368f	-0.08652984
177	0x3c77d8ca	0.01512737
178	0x3ce476aa	0.027888615
179	0xbc442b98	-0.011973284
180	0x3da828d7	0.082109146
181	0x3bd5f95a	0.006529969
182	0x3d35cf35	0.04438706
183	0xbcf7b078	-0.030235514
184	0xbca9eff1	-0.020744296
185	0xbd87f106	-0.066377684
186	0xbc787515	-0.015164633
187	0x3df22ec1	0.11825324
188	0xbd399bf0	-0.04531473
189	0x3e0c4d80	0.13701439
190	0xbe177204	-0.14789587
191	0x3e150c44	0.1455546

fc.bias f4 [3]
0	0xbd530aa4	-0.05152382
1	0xbcd64990	-0.026158124
2	0xbd403239	-0.046922896
